v3/py2tfjs/conversion_example/model.pth (torch, 484293 bytes, 116 tensors)

model.0.0.weight f4 [15, 1, 3, 3, 3]
00000000: 97da 6740 ed3e 3440 31e2 573f 5997 923f
00000010: 16e1 8abf 8bcd 13c0 8678 78c0 3bfc 9ec0
00000020: ad76 9bc0 ebae 7140 369b 4740 79b9 633f
00000030: b9ff 0440 c89c f2be d714 05c0 5895 4ec0
00000040: c279 81c0 cdaf 55c0 0967 7040 43be 8240
00000050: 352c 0b40 7204 3140 b95e e13f 06cb 0c3f
00000060: 7e7c 93bf 046a b8bf 5a84 73bf f7cc 8340
00000070: 3784 39c0 01ed a8c0 e7b6 1840 aba8 e4c0
00000080: 7a26 0cc1 fab2 6f40 7342 47c0 da36 27c0
00000090: 8711 aa40 1d36 cebf 6623 4ac0 f884 5040
000000a0: 6470 d5c0 a74e fdc0 b3ea 7540 f450 58c0
000000b0: acb1 64c0 e50c f840 f0c8 5240 8588 1240
000000c0: 241b c640 eb67 9c3e 2e64 16bf ea07 b640
000000d0: 287c 893f 4df6 4a3f 9bf7 aebf 8d79 093d
000000e0: dbea ce40 f36d 8bbf 91fd 6640 c162 3441
000000f0: ba37 8740 8abc 1941 c18c 5c41 4841 94c0
00000100: d8e9 0dc1 396f a3bf dc44 21c1 f656 42c1
00000110: 10b0 a2c0 a831 4fc0 25c8 d6bf 2a17 8840
00000120: 9adc ec3f eab0 8e3e 7ce7 6b40 0b94 06c0
00000130: eeb5 50c0 14c5 27bf fc4d 82bf 46ab c43e
00000140: 0bbc 0140 0ac1 3cc0 6a0e 4abf b0b9 58c0
00000150: 25b3 fbbe b439 6e40 33e1 153f 52c7 90c0
00000160: cccb 1cc0 541c 75c0 5e97 b43f b6cf d640
00000170: 166e 993f 2fcf 9640 340f 5c41 a315 1d41
00000180: 19a4 53c0 2cbb 1b3f 892a f93b c161 4ec0
00000190: 59ca 8c3f b831 bebf 12d9 20c0 64c3 8c40
000001a0: 775c 2540 f414 d5c0 eb4c 4bc0 053b 5bc0
000001b0: 0d44 0740 5590 193f c9bd ac40 ba91 8cbf
000001c0: b4be c1c0 eaee 9c3f 59d4 9740 f9a5 7c3f
000001d0: 40c6 c040 e455 99bf 3de1 9ac0 16d2 5940
000001e0: 437e 03c1 8f31 a0c1 e2b4 e0c0 e835 8040
000001f0: ea9a a9c0 65ed 573f 8ff2 5b40 279d e23e
00000200: 1d6a c940 46e1 35bf b864 15c1 6beb 573e
00000210: af43 f040 c08b 273f 3917 8240 c351 3bbf
00000220: c6e5 21c0 083e 86c0 98a1 8b40 80b9 5440
00000230: 3fbb 87bf 2d8b 9d3f c0c9 fb3f 0653 80bf
00000240: dc48 fb3e de5e f03e 967b 06c0 f8d7 b840
00000250: b974 f440 0141 1b40 7a80 bc3f dbe2 8940
00000260: c91b cc3e c6a2 64c0 67a0 8ec0 c386 c9c0
00000270: e485 753e 535f 363f 6d96 79c0 1213 71c0
00000280: eb92 0fc0 5b00 a3c0 7fcb 68c0 9161 39bf
00000290: cc55 1540 1408 01c0 3e1f 55bf ae46 a33e
000002a0: b2a9 5d40 e8ec 4d40 ee8d 5840 58cb adc0
000002b0: 9737 bbc0 7cb1 afbf 36e0 01c1 dbff 03c1
000002c0: 138c 79c0 4aa8 043f e476 8f3d 7264 f23f
000002d0: c94e 04c0 3f13 73c0 9e53 66bf 624a 86c0
000002e0: f237 c3c0 99ce 48c0 53c0 3040 bf72 fa3f
000002f0: d902 2740 e7c4 cabf b006 dabf 3228 98bf
00000300: 60b2 7dc0 a54a d9bf 2d42 4f3f a283 b7c0
00000310: d4ca 51c0 6eda d2bd fb1c 0c40 a6bb 4040
00000320: 95e7 6540 49bb 503e a60f 4140 acab af40
00000330: 2a91 31c0 1ed5 6f3f d1ca 9a40 c3b8 bcbe
00000340: d13c f0be b681 253f ed14 16c0 013c 89bf
00000350: d851 0140 d68c 8bc0 2476 fdbf e2eb 0540
00000360: 8502 e1c0 eeb1 d8c0 d274 8fc0 7f59 ccc0
00000370: 47f5 a0c0 b92e 84bf c9a9 08c0 1263 d23e
00000380: f5f2 2140 cca9 c0c0 f1d1 c9c0 a2d8 d5bf
00000390: 8c07 2dc0 352f 03bf b5af a240 51a8 3a40
000003a0: f3ef 0641 46fa 4441 1554 43c0 a734 69bf
000003b0: 1fe9 f13e 7397 123f 0a28 9540 0b4f 0641
000003c0: acc7 8040 0b48 1e41 ef0f 4941 a69f aabd
000003d0: 0fe5 eebd 4267 8140 be36 74bf 0913 82c0
000003e0: adc7 ed3e 0aa0 8c40 71df 6b3e 76e2 0340
000003f0: f745 84c0 ece9 b4c0 414d 923e dfba c1c0
3.6227167 2.8163407 0.84329516 1.1452438 -1.0849941 -2.3094203 -3.8823562 -4.96829
-4.858237 3.7763011 3.1188483 0.88954884 2.078108 -0.4738524 -2.079397 -3.2278652
-4.046113 -3.338855 3.7562888 4.0857253 2.1745732 2.7658963 1.7607032 0.5499729
-1.1522367 -1.4407353 -0.9512383 4.11877 -2.8986948 -5.278931 2.3861635 -7.1455894
-8.759394 3.7452989 -3.1134307 -2.6127229 5.3146396 -1.6110264 -3.1584105 3.2581158
-6.6699696 -7.915851 3.84245 -3.379941 -3.5733442 7.751574 3.2935143 2.2895825
6.190813 0.30548033 -0.5874661 5.688466 1.0741014 0.79282075 -1.3669313 0.033563185
6.466169 -1.0892929 3.6092265 11.27411 4.2255526 9.60853 13.784364 -4.632969
-8.869591 -1.2768317 -10.079311 -12.146231 -5.083992 -3.2374058 -1.6779829 4.2528276
1.8504822 0.2786935 3.6860037 -2.1027858 -3.261104 -0.6553509 -1.0180049 0.3841192
2.0271022 -2.9492822 -0.78928244 -3.3863335 -0.49160114 3.722272 0.5854675 -4.524331
-2.4499388 -3.829854 1.4108694 6.7128553 1.198672 4.712791 13.753712 9.817782
-3.3068907 0.60832477 0.0076039475 -3.2247164 1.0999252 -1.4858923 -2.513249 4.3988514
2.5837686 -6.6588078 -3.1765697 -3.4254773 2.1135285 0.5998586 5.398167 -1.0981972
-6.054529 1.2260411 4.7446713 0.98690754 6.0242004 -1.1979337 -4.839995 3.4034476
-8.218326 -20.024199 -7.0220804 4.0065804 -5.3001604 0.8434661 3.4366796 0.44260523
6.2942033 -0.71046865 -9.33709 0.21085899 7.508262 0.65447617 4.065335 -0.73171633
-2.5296493 -4.195072 4.363476 3.323822 -1.0604018 1.2308098 1.9670944 -1.0025337
0.49079025 0.46947378 -2.101293 5.7763634 7.6392484 2.4258425 1.4726708 4.3089423
0.39864948 -3.572435 -4.4570804 -6.2977004 0.23976856 0.71239203 -3.8998063 -3.766789
-2.2433422 -5.0937934 -3.6374204 -0.724145 2.3333616 -2.016118 -0.83250797 0.31889862
3.4634824 3.2175846 3.3836627 -5.431072 -5.850536 -1.3726039 -8.117239 -8.249965
-3.8991745 0.5181929 0.070050985 1.8936903 -2.0673087 -3.7980497 -0.8997134 -4.19658
-6.1005793 -3.1376097 2.7617385 1.9566268 2.6095488 -1.584134 -1.7033291 -1.1887267
-3.9640121 -1.6975905 0.8096035 -5.7348185 -3.2780046 -0.102955684 2.1892688 3.0114532
3.5922596 0.20383944 3.01658 5.489706 -2.774485 0.93684566 4.837258 -0.36859712
-0.469214 0.6465105 -2.3450272 -1.0721437 2.0206203 -4.360942 -1.9801679 2.0925221
-7.0315576 -6.77172 -4.4830103 -6.385925 -5.029941 -1.0326759 -2.1353629 0.4109121
2.530454 -6.020727 -6.3068776 -1.6706736 -2.7035856 -0.5124391 5.0839486 2.9165232
8.433581 12.311102 -3.052007 -0.91095966 0.4724817 0.57262343 4.6611376 8.394298
4.024374 9.892589 12.56639 -0.08331232 -0.11664783 4.0438547 -0.9539603 -4.0648236
0.46441403 4.394536 0.23034455 2.060697 -4.1335406 -5.653555 0.28574565 -6.0540614

model.0.0.bias f4 [15]
00000000: 9bed c33e d05b a6bf 81f0 943f f75f 88bf
00000010: a74a 92c0 60fa 403f 7207 2ec0 5d9c d3be
00000020: 76b7 31be d3ac b9c0 53a4 0ebe bc01 89c0
00000030: a53c 9fbe 0734 413f 8e62 f0c0
0.38267216 -1.2996769 1.1635896 -1.0654286 -4.571613 0.7538204 -2.7192044 -0.41330233
-0.17355141 -5.8023467 -0.13929872 -4.2814617 -0.31100956 0.7547001 -7.5120306

model.0.1.weight f4 [15]
00000000: 2370 c7bf 3f29 3840 72ee 933f c3cb 0041
00000010: 984f 95c0 5b74 46c0 903c 4241 9539 cb3f
00000020: abea 65c0 62df b140 128b 21c0 5093 7dc0
00000030: 64db 2740 38a0 1dc0 b724 2fc0
-1.5581096 2.8775175 1.1557143 8.0497465 -4.665966 -3.1008518 12.139786 1.5876948
-3.592448 5.5585184 -2.5241132 -3.9621162 2.6227655 -2.462904 -2.736616

model.0.1.bias f4 [15]
00000000: 9927 95c0 f8f5 e140 d0f4 01c0 4e38 3bbf
00000010: 5613 7fc0 616a d8bf 9ad4 1840 eba0 1dc0
00000020: 9882 0f41 b4b1 cdbd dc92 c3c0 dfe1 adc0
00000030: b5ce cf40 5b53 d640 89f6 c4c0
-4.6610837 7.0612755 -2.0305672 -0.7313279 -3.9855552 -1.6907464 2.3879762 -2.4629467
8.969383 -0.1004366 -6.111677 -5.433822 6.493983 6.697675 -6.1550946

model.0.1.running_mean f4 [15]
00000000: 7fd7 943e 1d74 21c0 7da9 0440 bc2e f03e
00000010: 36c6 d7c0 43d3 b3be 3081 19c1 8d01 8dbf
00000020: 3755 4a40 ac29 bac0 0815 4d3f 6abf 5cc1
00000030: d086 8940 136f c03f 8bb1 43c1
0.2907066 -2.522712 2.0728447 0.46910655 -6.7429457 -0.35122117 -9.59404 -1.1016098
3.161451 -5.817587 0.80110216 -13.796732 4.2977066 1.5033897 -12.230845

model.0.1.running_var f4 [15]
00000000: 9fd3 b140 1f9a 7941 1480 5641 6e03 2f41
00000010: e8aa 9041 4cf7 d740 ec1d f342 be52 8340
00000020: 33ae 4742 edda 3840 f52d d740 8dc4 6343
00000030: 2a1b 6242 ce05 fb40 5ebc 8342
5.5570827 15.600127 13.406269 10.938337 18.08345 6.7489376 121.55844 4.1038504
49.920116 2.8883622 6.72436 227.76778 56.526527 7.8444586 65.867905

model.1.0.weight f4 [15, 15, 3, 3, 3]
00000000: d888 c640 c6e7 9d40 f04c 9d40 b924 7640
00000010: a978 7d40 0098 3a40 3ceb 2840 47a7 94be
00000020: 168d 62bf ce30 d340 b3a1 8d40 3586 0e40
00000030: 52eb 4040 0c71 fa40 16ad 4f40 e4ea 963f
00000040: 7e56 8f3f e29d cbbf f24d f440 d66c f340
00000050: 8203 be40 3398 ce40 d230 b340 1b17 8840
00000060: c4bb a540 9b02 5140 6a5b 883f e0a1 0cc0
00000070: b69b 97bf 539e afbf 6d40 3dbf 36fb b5bf
00000080: 23d3 5dbf faf3 f1bf b700 27c0 c974 0840
00000090: d070 4dc0 d06f 5f40 fd2a 2bbf da95 0541
000000a0: 1386 8241 1753 ffbf d239 e13f ad44 4840
000000b0: cb23 813f 7b30 adc0 7691 d6be 8e29 5a3f
000000c0: cb36 0840 2405 1841 ac4e 303f 13dc ca3f
000000d0: 4150 463d fbed b43f d6f0 7440 4b93 d03e
000000e0: 23e1 cc3f 2766 0e40 b7d0 f03f 4b56 0f40
000000f0: 1981 3f40 d097 5740 784a 6f40 c999 dc3f
00000100: 1be2 8bc0 7425 cdbf 55e7 0ec0 ef9f 9a3e
00000110: 00bc c640 9f00 063f 3535 7d40 cde8 8240
00000120: 1001 d340 6699 fc3f 400b f23f ec4d cb3f
00000130: fc0e c4bf 05fa 2640 8ccf 1640 0aaf 9440
00000140: 6e74 b240 86a4 e8bf 10ea a23f 2ead c8bf
00000150: 8a20 6440 546e 8ebf d3d0 c840 43ca 9540
00000160: 5be2 9740 175b b140 a156 3d40 1d92 9440
00000170: 653c b840 4b80 8ac0 5927 d6c1 cef2 a93f
00000180: ea4d 0a3f 2361 e1c0 82a5 9240 42f1 f03e
00000190: 3f2f de3f 7761 49bf eca6 9a40 1db0 0240
000001a0: 37c8 a740 f9c1 3440 fbcb 6740 7e8d 9440
000001b0: faa5 febf fbad 24c0 c727 0dc0 a847 c73f
000001c0: d3a1 41c1 3654 fa3e b74c 1940 3ae0 cabf
000001d0: 8899 c73e add3 1240 799b d0bf e054 7e40
000001e0: 78dc a3bd ee31 04c2 c3f5 fdc0 5d39 2c40
000001f0: 574c 01c1 cb94 823e 47cc 263f 6352 9c3f
00000200: ef40 09c0 2390 c240 b780 04c0 d18b 6d40
00000210: 35ab 0c40 56ae 393f 9a9a 843f d439 8840
00000220: d16c 0ebd fd84 0b3f d0f6 5040 b55a febf
00000230: 6c77 4bbe 8ef4 8040 05b3 fdbe d9bd f93f
00000240: e37f 1340 065f 55bf 1b90 02c0 c6c7 5e3c
00000250: 8ee5 ce40 3554 b240 53d3 88bc 00cf 4bc0
00000260: ad15 97bf 50f8 2b3f 7114 b7bf 2630 00c0
00000270: 6527 0d3d a77b e23f 5a7c 08c0 bd1e 4dbf
00000280: 6a17 39c0 7715 35c0 a158 adbf acaf 1fbf
00000290: 1f99 9ebf b234 5740 d1dc f840 bc19 ac40
000002a0: 655a 1d40 643c 8a40 7e0b ef3f c02d 1e3e
000002b0: 4ee0 bdbe 2954 08c0 4c63 bf40 5465 ed40
000002c0: a5cc cc40 eb0d 5a40 a2f7 4540 d3ac e93f
000002d0: 63fb 3dc0 54fe 79c0 d659 9ac0 2e7f aabf
000002e0: 0833 1840 d44c 9a3f 1a67 91bf fbc3 8340
000002f0: 0724 3640 c68c 9640 ca3b 9040 59d5 6a40
00000300: 5c6a 6e40 17c9 9a40 ce70 c23f 833e 7840
00000310: e033 ae40 175e 4c40 43f8 c040 ce33 9240
00000320: 0054 3540 21e0 6d40 8c23 0841 b6b3 9540
00000330: 4a20 9740 275e d340 8525 2240 3cad 1e41
00000340: 75b5 f340 6f67 fe40 c8e1 1241 43b3 2241
00000350: eed5 e440 4cf7 d540 cffc 0341 7726 b440
00000360: ade1 a4bf a8be 8440 55ae 0740 964c 2a40
00000370: e280 d640 cd32 0d40 c093 11c0 024a 84c0
00000380: ed5a 17c0 a0e9 4f40 2f73 4541 04ce f83f
00000390: 15a3 1741 149b 1b41 22be 223f e3a2 043f
000003a0: c5e4 98c0 f970 78c0 8f0f 8dc0 f36f d9bf
000003b0: 5916 d4be 860a 6a3f 1c18 3ac0 9e87 01c0
000003c0: 2e9e 67c0 c8e6 c4c0 582e 07c0 b9e1 0a40
000003d0: db00 4cc0 8aa4 a740 28d2 41be 53e8 a6c0
000003e0: 5de7 83c0 87a3 9340 c2dc 803f 08c7 ab40
000003f0: f022 05c1 02c6 d5c0 2f37 23c1 5e29 43c0
6.2042046 4.9345427 4.915642 3.8459914 3.9604895 2.9155273 2.6393576 -0.29033872
-0.8849653 6.5997076 4.4259887 2.2269413 3.0143628 7.8262997 3.2449393 1.1790433
1.119827 -1.5907557 7.634515 7.6070356 5.937928 6.456079 5.5997095 4.2528205
5.1791706 3.265784 1.0652897 -2.19738 -1.1844394 -1.3720192 -0.7392643 -1.4217288
-0.86650294 -1.8902581 -2.6094186 2.132128 -3.2100105 3.4911995 -0.6686247 8.349085
16.315466 -1.9947232 1.759577 3.1291916 1.0089048 -5.412168 -0.41907853 0.8521966
2.1283443 9.501255 0.68870044 1.5848411 0.04841638 1.4135126 3.8271995 0.40737376
1.6006206 2.224985 1.8813695 2.239642 2.9922545 3.368641 3.7389202 1.7234432
-4.371351 -1.6027055 -2.2328694 0.30200145 6.210449 0.523447 3.9563725 4.090918
6.5938797 1.9734313 1.8909683 1.5883155 -1.5317073 2.60901 2.3564177 4.646367
5.5767126 -1.8175209 1.272768 -1.567785 3.564486 -1.112742 6.275491 4.68094
4.7463813 5.5423694 2.9584124 4.642836 5.7573724 -4.328161 -26.769213 1.3277223
0.5402514 -7.0431075 4.5827036 0.47059065 1.7358168 -0.78664345 4.832876 2.041999
5.2431903 2.8243392 3.621825 4.642272 -1.9894402 -2.573119 -2.2055528 1.5568743
-12.102008 0.48892373 2.3953073 -1.5849679 0.38984323 2.2941697 -1.6297446 3.9739304
-0.080010355 -33.04876 -7.93625 2.6910012 -8.081138 0.25504145 0.6515545 1.2212642
-2.1445882 6.080095 -2.0703561 3.7116587 2.1979496 0.7253164 1.0359681 4.257059
-0.034771744 0.544998 3.2650642 -1.9871432 -0.19869775 4.029853 -0.49550644 1.9511062
2.3046806 -0.8334812 -2.0400455 0.013597434 6.465522 5.572779 -0.01670233 -3.1845093
-1.180349 0.6717577 -1.4303113 -2.0029387 0.034461398 1.7693986 -2.1325898 -0.8012503
-2.892054 -2.829435 -1.3542672 -0.6237743 -1.2390479 3.3625913 7.776955 5.3781414
2.4586422 4.319872 1.8675382 0.1544714 -0.37085193 -2.1301367 5.980871 7.418619
6.399981 3.4070995 3.0932393 1.8255867 -2.9684684 -3.906148 -4.8234663 -1.3320062
2.3781147 1.2054696 -1.1359589 4.1176734 2.845949 4.7046843 4.5072985 3.6692717
3.7252417 4.837047 1.5190675 3.8788154 5.4438324 3.1932428 6.0303054 4.568824
2.833252 3.7168047 8.508678 4.6781874 4.7226915 6.605243 2.53354 9.917294
7.6159005 7.950126 9.180122 10.168765 7.1511145 6.6864376 8.249221 5.6296954
-1.2881371 4.1482735 2.1200154 2.6609244 6.703233 2.2062256 -2.274643 -4.134034
-2.3649247 3.2486343 12.340621 1.9437871 9.477315 9.725361 0.6357137 0.51811045
-4.777926 -3.8818953 -4.4081492 -1.6987289 -0.414233 0.9142231 -2.9077215 -2.0239024
-3.6190295 -6.1531715 -2.1122036 2.170027 -3.1875522 5.2388353 -0.18927824 -5.21586
-4.1219926 4.613712 1.006737 5.368046 -8.32103 -6.680421 -10.200973 -3.0493999

model.1.0.bias f4 [15]
00000000: 549a 38bd 210c 813f 29c1 dfbe 609d 003c
00000010: 8e25 3c3f f7e9 9b3f f0ec 86be bf32 dd3b
00000020: 1c92 a93f e384 c83e 6659 1a3b 73d9 8cbf
00000030: f7b1 1a3f a623 903b 541d 8fbe
-0.045069054 1.0081826 -0.43702057 0.007850021 0.73494804 1.2180775 -0.26352644 0.006750434
1.3247714 0.39163885 0.002355182 -1.100386 0.604278 0.004398781 -0.27952063

model.1.1.weight f4 [15]
00000000: 2afe 02c1 2cc1 6b40 1b67 8640 42b8 ec3f
00000010: faba 1c40 3e3a 5140 ba08 6ec0 4267 3040
00000020: 7ff4 5d40 ffd3 1bc0 0b12 eebd a5e4 88c0
00000030: 5cdb bb40 4dec 10c0 2429 c340
-8.187052 3.6836653 4.200086 1.8493731 2.4489121 3.2691798 -3.7192826 2.7563024
3.4680479 -2.4348142 -0.11624535 -4.2779107 5.8705273 -2.2644227 6.098772

model.1.1.bias f4 [15]
00000000: 8b2c 5940 131d c9bf 022f 18c0 66a4 1fc0
00000010: 802c 93c0 ac46 72c0 8153 92c0 7a58 39c0
00000020: 3761 4ec0 9b86 67c0 cebd 93c0 fa48 b7c0
00000030: afda 36c0 5240 b1bf 0f40 b7c0
3.3933437 -1.5711998 -2.3778691 -2.494409 -4.599182 -3.7855635 -4.5726933 -2.8960252
-3.2246835 -3.6175907 -4.6169195 -5.7276583 -2.8570974 -1.3847754 -5.7265697

model.1.1.running_mean f4 [15]
00000000: 6c88 73c3 b894 41c5 71aa 9c43 2e9c 12c5
00000010: cb56 03c5 7093 41c5 f214 0942 37b1 4443
00000020: b4e5 2cc5 cb5e 02c4 153c 3245 209a 2344
00000030: 1130 82c5 95ef 1545 e38a a244
-243.5329 -3097.295 313.33157 -2345.7612 -2101.4246 -3097.2148 34.270454 196.69225
-2766.3564 -521.48114 2851.7551 654.4082 -4166.0083 2398.9739 1300.3402

model.1.1.running_var f4 [15]
00000000: 5cfb ca48 08be 5d4a 47fd f548 2a82 e848
00000010: bab0 1a4a cb98 394a 5ac5 5147 fff2 3247
00000020: cbaf 3a4a e4d9 0747 09a3 1849 7ebf 3447
00000030: c22d 7b4a 6838 bd47 37e8 a748
415706.88 3.633026e+06 503786.22 476177.3 2.5344465e+06 3.0408188e+06 53701.35 45810.996
3.0586748e+06 34777.89 625200.56 46271.492 4.1153125e+06 96880.81 343873.72

model.2.0.weight f4 [15, 15, 3, 3, 3]
00000000: 4c9c e5bf 70a6 6ac0 8428 1ac0 eda4 e73f
00000010: 230a 2640 5660 5abd 0eb7 f33f e3ff d1be
00000020: 0a12 babf 625e 26bf e82c 81bf 209d ecbd
00000030: 840c ec40 0f82 a541 2aa1 a640 ba67 5f40
00000040: 16dd 5b40 9e0e 2740 ef29 3abf d65b 10bf
00000050: acc3 3640 c80f d53f e382 ba40 dabb 5740
00000060: ce97 5f40 537d 5f40 8672 ac40 4d27 1840
00000070: 1324 4b40 fef4 be3f b354 6e40 c381 bf40
00000080: 9618 fb3f d264 de3f e585 df3f 400d e9be
00000090: e2c0 7140 1fd7 a740 8cc6 c63f 2afa 2741
000000a0: 61a9 a541 62ac 9c40 98c9 2940 8c49 9c40
000000b0: 516a 0c40 b0d6 5cbf 0691 643f 95c5 ebbe
000000c0: 63ab 7f40 cab6 e840 565d 0340 0c64 85be
000000d0: 3da3 0540 e55f 8e3f 0e50 843e 3bf2 4440
000000e0: 0199 ae3d 269a 25c0 5085 453e c649 79bf
000000f0: 5faa 4ec0 a800 a7bf 24c8 3ac0 2e3a 1d3f
00000100: c932 5940 2eff 283f 8acf 7ac0 faa2 9ebf
00000110: 95bb 9dbf 7b2a 4fc0 2cea 56c0 d983 06c0
00000120: d933 7340 b8cf b040 e547 6640 4602 dcbd
00000130: be4b 2640 2719 ec3f aeaa 023f 626d e43f
00000140: 21b5 6c3f 51a0 6f3f f5ae 3a40 7abd f83f
00000150: 6d8e b43f e38c f03f 4b0e c83e 7df0 343f
00000160: 302d ccbe cc2f 9bbf b8b2 0640 9bad 9f40
00000170: 7350 4140 1bac 67bf 69e8 3641 7978 bd3f
00000180: d91d f9bf 2312 77c0 8350 acbf 0e9e 2f40
00000190: 1b09 9e40 bec4 8940 4fef 2e40 f529 4a40
000001a0: ab2e 1540 3d3c 55bf 0ecb bfbf 2489 f8be
000001b0: d26e 6e40 b72c 9f40 bc84 4640 a576 7740
000001c0: 05e7 bd40 d53c 2f40 d750 1540 3e4a da3f
000001d0: bcf5 5abf 3455 bb40 1c09 0941 22e3 8140
000001e0: ded6 4b41 ad53 c641 f52a d640 6ed4 7640
000001f0: 52ab ab40 68a5 e33f a492 c03f 32fc 5a40
00000200: 4963 bc3f a860 ab40 e7c0 0741 a636 1a40
00000210: 06ea 013e d691 da3f 2a08 20be c8e4 1140
00000220: eb14 8040 ed30 c43f 45f8 3540 18a2 a240
00000230: d673 8f3f 94c4 ab3f a57e 953f 9800 08c0
00000240: 36b3 bd40 1f9e 0a41 1103 5940 1805 5241
00000250: 2738 d141 0460 b540 cb72 8840 7c81 c140
00000260: 2afa 0940 7288 383f f89a 3040 b1c7 f93e
00000270: 98cc ae40 d447 0d41 e295 db3f 824a 143f
00000280: 0460 1440 0ec3 953d f8d2 d340 e347 f440
00000290: 6ffb c840 2e24 ca40 0ebe a940 35df ce40
000002a0: 99eb e540 cc77 df40 5128 f440 59f1 ec40
000002b0: 8c18 1c41 bd56 c240 27ac a340 8fc8 1d41
000002c0: c0b1 d240 2589 ca40 5f81 d740 0ed7 e040
000002d0: bf18 0841 b393 0041 e5ff e540 ed2a b540
000002e0: f0cb 6e40 306b 9b40 3ae0 0541 d619 f140
000002f0: f579 df40 caa7 4340 e930 7c40 4edb 6c40
00000300: 7bc4 9b3f 7780 c03f ed79 0940 5d56 3940
00000310: bde8 3b40 340c 3b40 e8d6 9940 daa2 c640
00000320: 574b 8f40 abb4 e83e ba99 a13b cab1 1440
00000330: d754 3840 91c9 e83f e55b 1e40 1fb4 b040
00000340: 7b8a ba40 d536 9140 f72e 3c40 ce43 1740
00000350: 72ef 2840 c1f1 8940 e43a 7840 5ce0 5540
00000360: d874 1940 2cfd 6e40 f75e c23f 860d 5b40
00000370: 06ba ba40 c4ec cb3f 92c9 ff3f f051 b53f
00000380: d816 95bf 1e8e ad40 8445 f640 3b98 3540
00000390: b30f 4741 291c d141 8eb4 ab40 938b 8740
000003a0: d359 b840 856e 1c40 c57f d43c b4da 0240
000003b0: 165a 9ebd d0cc 9b40 ce9b 0241 419e ce3f
000003c0: 8145 a23e 083a 0840 df4b 433f efcd ab3f
000003d0: b0de b63f f790 7c3f fc69 f43d e674 f9be
000003e0: eb79 78be 971a 0340 df05 df3f d0db d43f
000003f0: 3b37 8740 19c1 8540 7369 2040 95db 573f
-1.7938323 -3.6664085 -2.4087229 1.8097206 2.5943687 -0.05331453 1.9040239 -0.4101554
-1.4536755 -0.64987767 -1.0091829 -0.11553407 7.376528 20.688505 5.2071733 3.490706
3.435369 2.6102672 -0.72720236 -0.5639013 2.8556929 1.6645441 5.8284774 3.3708405
3.4936404 3.4920242 5.38898 2.3773987 3.1740768 1.4918516 3.7239196 5.98459
1.9616878 1.7374518 1.7462736 -0.4551792 3.7773976 5.24501 1.5529342 10.498575
20.707705 4.896043 2.6529293 4.883978 2.193989 -0.8626509 0.8928379 -0.4604918
3.9948356 7.272313 2.0525718 -0.26052892 2.0880883 1.1123015 0.25842327 3.0772846
0.08525277 -2.5875335 0.19289136 -0.97378194 -3.2291486 -1.3047075 -2.9184656 0.614169
3.3937247 0.66014373 -3.9189172 -1.2393486 -1.232287 -3.2369678 -3.3580427 -2.1017973
3.8000395 5.5253563 3.598138 -0.10742621 2.598373 1.8445176 0.51041687 1.7845881
0.9246388 0.93604 2.9169285 1.9432824 1.4105965 1.8792995 0.39073405 0.70679456
-0.39878225 -1.2123961 2.1046581 4.989942 3.0205352 -0.9049699 11.431741 1.480239
-1.9462234 -3.860482 -1.346207 2.744022 4.9386115 4.3052664 2.7333562 3.1588109
2.3309734 -0.8329504 -1.4983842 -0.4854213 3.725514 4.9742084 3.1018515 3.8666165
5.9344506 2.738088 2.333059 1.7053907 -0.8553121 5.854151 8.564724 4.058976
12.739958 24.790857 6.692744 3.8567157 5.364663 1.7784853 1.5044751 3.4216428
1.47178 5.355549 8.484595 2.4095855 0.12686929 1.7075756 -0.15628114 2.2795887
4.0025535 1.5327431 2.8432782 5.082287 1.1207225 1.3419366 1.1679274 -2.1250362
5.9281263 8.663604 3.3908122 13.126244 26.152418 5.6679707 4.264013 6.047056
2.1558938 0.720832 2.7594585 0.48785165 5.462475 8.830036 1.7155116 0.5792619
2.3183603 0.07312594 6.619503 7.633775 6.2806926 6.3169165 5.30445 6.464747
7.1850095 6.9833736 7.6299214 7.4044614 9.755993 6.073088 5.1147647 9.8614645
6.584198 6.3292413 6.7345424 7.026252 8.506042 8.036059 7.187487 5.66149
3.7311974 4.8568344 8.367243 7.534404 6.9836373 3.057116 3.9404852 3.7008853
1.2169336 1.5039204 2.1480668 2.8958962 2.9360802 2.9226198 4.8074837 6.2073793
4.4779468 0.4545034 0.0049316557 2.3233514 2.8801782 1.8186513 2.4743588 5.5219874
5.8294044 4.5379434 2.9403665 2.3635135 2.6396146 4.310761 3.8785944 3.3418188
2.3977566 3.7342024 1.5185231 3.4227004 5.835208 1.593163 1.9983389 1.416563
-1.1647596 5.4235983 7.695986 2.8374164 12.441333 26.13875 5.3657904 4.235788
5.760965 2.4442456 0.025939832 2.0445986 -0.07732026 4.8687515 8.163038 1.6142045
0.31693652 2.128542 0.76287645 1.3422221 1.4286709 0.986587 0.119342774 -0.48722
-0.24265258 2.048498 1.7423667 1.6629581 4.225492 4.1798215 2.506436 0.8431943

model.2.0.bias f4 [15]
00000000: 8ec3 fabd d959 29bc fd37 f03e e1bc 08be
00000010: a1c7 e9bd 4b67 c9be 9b57 aabe d4ea ce3b
00000020: 0711 c93a 9807 353c 6750 773c 9a0e d8bc
00000030: 58bf eb38 d65d 433f 9e88 d83b
-0.1224433 -0.010336363 0.46917716 -0.13353302 -0.11415029 -0.3933662 -0.33269963 0.006314615
0.0015340158 0.011049174 0.015094853 -0.02637415 0.00011241314 0.7631506 0.006608083

model.2.1.weight f4 [15]
00000000: 5e31 8640 e30a a340 9fc6 0441 e73e b340
00000010: b6fa 82c0 d056 a340 deb1 a740 23dc 1540
00000020: 086c ed3f 0cee 9cc0 0d44 ab40 c275 9440
00000030: bc0d 1ac0 5fa9 6e40 9784 ed3e
4.1935263 5.095079 8.2984915 5.6014285 -4.0931044 5.104347 5.2404623 2.341561
1.8548594 -4.9040585 5.352057 4.6393747 -2.4070883 3.7290876 0.4639022

model.2.1.bias f4 [15]
00000000: 9074 d4bf b7b1 df3e 91aa 43bf 247d 4fbf
00000010: d48a 13c0 11bc 55bf 6e72 53bf c0e2 b540
00000020: 23de 1dc0 c3fe 0d3e 6014 b940 1b6e 5e3e
00000030: a34e 60bf 2a45 f7c0 5c70 27c0
-1.6598072 0.43690273 -0.7643214 -0.81050324 -2.3053484 -0.8349009 -0.8259648 5.6839294
-2.4666831 0.13866715 5.783737 0.2172169 -0.8761999 -7.727193 -2.6162329

model.2.1.running_mean f4 [15]
00000000: 5d37 73c3 c00e 24c3 9f11 aa43 6beb a143
00000010: b709 5943 f99f 8b43 a50c 8343 504f 4dc3
00000020: fcec a6c2 43a2 df42 22b0 5d42 7a13 87c3
00000030: 7042 00c3 0b3e b2c3 3112 97c2
-243.21626 -164.05762 340.13766 323.8392 217.03795 279.2498 262.0988 -205.30981
-83.46286 111.81692 55.422005 -270.15216 -128.25952 -356.4847 -75.53553

model.2.1.running_var f4 [15]
00000000: 8b38 044a 525f 8948 20a4 7148 1dde 7648
00000010: 419d f946 79c8 9d48 665d c248 787c 9f47
00000020: 4d29 bf45 8984 2748 b6b7 6648 fe5a 9047
00000030: b91b f847 bfcb 474a b039 ce48
2.1663068e+06 281338.56 247440.5 252792.45 31950.627 323139.78 398059.2 81656.94
6117.1626 171538.14 236254.84 73909.984 127031.445 3.2734558e+06 422349.5

model.3.0.weight f4 [15, 15, 3, 3, 3]
00000000: f351 bf3f 3cd4 2940 9f89 1c40 4312 3a40
00000010: 4f6c 8240 6bad 1240 6ae9 0840 1103 ed3f
00000020: eaab 36be 172c a8bc 6716 2540 8e93 a03f
00000030: 3228 9640 2928 b241 a905 c840 5a77 3a40
00000040: a89c 4b40 d644 a43f 29d9 d03f 6134 fd3e
00000050: 3e1e 663d 17e4 2b40 a328 1b40 6914 1e40
00000060: 3f4f 2240 f949 0240 06b4 b43f 107f bd40
00000070: 1517 8440 26e3 8d40 00c7 9840 46d6 7f3f
00000080: 12b0 2540 5b49 b040 4054 b23f 0cf6 3840
00000090: 936f 0640 fdf3 e8be 269a 2140 cd14 fbbf
000000a0: 2307 bdc0 c577 96bf 9864 3340 786c 9ac0
000000b0: ddbf b9bf b720 a740 dbd8 7640 237a a340
000000c0: 4d88 4440 3923 aabe 7342 4c3f 868f a840
000000d0: 462d 01bf 58e4 ca3f e765 913f a6a9 4840
000000e0: a403 3a40 a3ec 5c3f bfef 2bc0 8f7d b73f
000000f0: 289e 8d3f ad78 953f d64c 0e40 f090 d6be
00000100: dc1d d3bf 31ae 0940 f1d4 8ebf 33bd f041
00000110: 4a77 8cc0 4562 683f fe44 34c0 d661 c33f
00000120: 7cae b13f e30a af3f 5823 853e b898 1c40
00000130: 5aa7 02c0 0ff7 573f 996a 843f efae 673f
00000140: 8164 933f f2c6 bcbd 5ccc b03e 26c9 0f40
00000150: 01de 89bf 27f2 e6bf be92 d3be 79f6 d13f
00000160: b694 c43e 4fc9 d53f 050f 25c0 f52c fbbf
00000170: c8fb 9cbe a124 67bf 5b50 c441 59ab 52c0
00000180: ac1e debe f97c 03bf 1a52 623c 8d30 c43d
00000190: ec57 9dbf 1fce 3d3d 8b17 793e 47cc 05c0
000001a0: ff28 acbe 2828 ba3f 32a0 143f c870 a03f
000001b0: 2bb9 abc0 17e6 4bc0 9256 10c0 8f5e e6bf
000001c0: 2ec9 d6be 1d9d e1bf ceab 0dc0 f016 75bf
000001d0: e11f 08c0 3af4 42c0 1ed1 d3bf d89d cabf
000001e0: 0808 cabf c886 b040 a497 5440 3510 92bf
000001f0: 3c87 3f40 bdb2 cd3d c670 8bc0 d4ab 92c0
00000200: dc95 70c0 708c 16c0 cda2 18c0 b477 83be
00000210: 43f7 c2bf 330d 243f 4145 f2bf 3a66 103f
00000220: 2e10 863f b4e2 0740 7dcb c6be 2f23 d2bd
00000230: 9f2a f9be 8abf f43f a947 1f3f 87b4 a03f
00000240: 1fca 0cc0 cca8 2c3e 6883 59bd ac54 ac3d
00000250: f391 af41 dd96 e7be 48df c13b 6f6a ab3f
00000260: 4594 993e 4dfd 8e3e 1ffb 25bf 5487 b63e
00000270: 3577 953e 74e9 f6be 08f5 053f a5a9 0540
00000280: bed2 d73f 92b8 ce3f 4b27 503f 9777 a43f
00000290: a51a 0040 7a30 0bbe 9c97 063f 5453 bcbe
000002a0: 2718 fc3f c869 643f 99db a33f 1e19 02c0
000002b0: dc1f 3d3f caf1 443d 672c 073e a274 a941
000002c0: d4be 5c3f 9d52 983e d19b e13f b6a5 473f
000002d0: dfe4 3c3e f5b7 13bf 1647 a83e 2480 383e
000002e0: 970d b4be 5ede 323f 9c7c 1f40 0be6 0340
000002f0: 50e5 0040 6d15 d43f 2c1f fabe ddca eebe
00000300: 554b 2540 aadf 0c3e a4f9 86be 92b5 37bf
00000310: 8a2d d7bf d547 69c0 763a 0a40 a045 32c0
00000320: 2844 92bf ecbc 2e3e 226a ecc0 ff6b 07c0
00000330: b551 adbf 6e11 96c0 d9dc 56c0 7e6f fa3f
00000340: 49f5 1f40 8234 5c40 c00e 713f 0309 e4be
00000350: a0a6 3dbf 75a4 133f dc79 eebf 910a febf
00000360: c51d a5c0 b176 c9c0 f44a 63c0 de07 7cc0
00000370: c4d9 b6c0 53f5 a1bf a9c5 eebf 4445 29bf
00000380: f257 a83f 5769 5ec0 ea13 06c1 ca3b 9dc0
00000390: 0e26 8bbf 32f2 58c0 f6a9 bcbf d90d 23be
000003a0: 7318 b8bf d3d7 4440 90cc bac0 3fdb 07c1
000003b0: b3a6 f1c0 5a83 87c0 49af efc0 6dc3 abc0
000003c0: 2c79 0fc0 bf67 5dc0 1c74 73bf 7f6d 49bf
000003d0: 6303 8dbf e69a 3340 29fd 17c0 c00c 27c0
000003e0: 41a1 22bf a9bd 3840 4d37 423f bed8 2440
000003f0: 303d 05c0 1d57 86bf f954 5abd e9a5 42c0
1.4946884 2.6535788 2.4458997 2.9073646 4.0757213 2.2918346 2.1392465 1.8516561
-0.17839018 -0.020528836 2.5794923 1.254503 4.6924067 22.26961 6.250691 2.9135346
3.1814365 1.2833507 1.6316272 0.49454024 0.056181185 2.6857965 2.4243553 2.4699957
2.5360868 2.035765 1.4117439 5.9217606 4.1278176 4.433978 4.774292 0.9993633
2.5888715 5.5089545 1.3931961 2.8900175 2.10056 -0.45498648 2.5250335 -1.9615723
-5.907121 -1.1755301 2.8030148 -4.825741 -1.4511677 5.2227435 3.8569858 5.1086593
3.0708191 -0.33229998 0.79788893 5.26752 -0.50459707 1.5850935 1.1359223 3.1353545
2.9064722 0.8629858 -2.686508 1.4335192 1.106389 1.1677452 2.2234397 -0.41907454
-1.6493487 2.1512568 -1.1158735 30.092382 -4.3895617 0.9077495 -2.816711 1.5264232
1.3881373 1.3675197 0.26003528 2.4468212 -2.0414643 0.84361356 1.0345031 0.905013
1.1515046 -0.09217633 0.34530914 2.2466521 -1.0770875 -1.8042649 -0.41322893 1.6403342
0.38394707 1.670206 -2.5790417 -1.9623095 -0.30660844 -0.90290266 24.539236 -3.2917082
-0.43382776 -0.5136257 0.01381352 0.09579573 -1.2292457 0.04633915 0.24325387 -2.090593
-0.33625028 1.4543505 0.5805694 1.2534418 -5.3663535 -3.1859186 -2.2552838 -1.7997607
-0.41950363 -1.7626072 -2.2136111 -0.95738125 -2.1269457 -3.0461564 -1.6548193 -1.582942
-1.5783701 5.516453 3.3217554 -1.1411196 2.992629 0.10043857 -4.3575163 -4.583475
-3.7591467 -2.3523216 -2.3849366 -0.25677264 -1.5231708 0.6408264 -1.8927385 0.56405985
1.0473688 2.1232119 -0.38827124 -0.10260617 -0.4866533 1.9120953 0.6221872 1.2555093
-2.1998365 0.16861266 -0.053103834 0.084145874 21.946264 -0.45232287 0.00591651 1.3391856
0.29995933 0.27927628 -0.64836305 0.35650122 0.2919251 -0.48224986 0.52327013 2.0884793
1.6861188 1.6150076 0.81309956 1.2848996 2.0016263 -0.13592711 0.5257509 -0.36782324
1.9694871 0.8922391 1.2801391 -2.032783 0.7387674 0.04808215 0.13200532 21.18195
0.8622868 0.2975053 1.7625676 0.7798723 0.18446682 -0.5770257 0.32866734 0.18017632
-0.35166618 0.69870555 2.4919806 2.0609157 2.0139961 1.6569039 -0.48851907 -0.46639147
2.582723 0.13757196 -0.26362336 -0.7176143 -1.6810772 -3.6450093 2.1598182 -2.7854996
-1.142705 0.17064255 -7.3879557 -2.1159666 -1.354056 -4.6896276 -3.3572295 1.9565275
2.499346 3.4407048 0.9416313 -0.44538125 -0.74082375 0.57672817 -1.8630939 -1.9846975
-5.159884 -6.2957387 -3.5514498 -3.9379802 -5.7140827 -1.2652992 -1.8654071 -0.66121316
1.3151839 -3.4751794 -8.379862 -4.9135485 -1.0870988 -3.3897824 -1.4739368 -0.15923251
-1.4382461 3.0756729 -5.837471 -8.491027 -7.551599 -4.234784 -7.490147 -5.3676057
-2.2417707 -3.4594572 -0.95099044 -0.786827 -1.1016659 2.8063293 -2.3748267 -2.6101532
-0.63527304 2.886576 0.7586563 2.575729 -2.0818596 -1.0495335 -0.053303692 -3.0413764

model.3.0.bias f4 [15]
00000000: 184b 4f3d 778b e7bb 23bc c13c c65c dab9
00000010: fe8f dc3b 73c0 e23c 80ef 823c 145f f63d
00000020: 3584 833a 7657 1cbb df1d 7c3b 0fde 9fb9
00000030: d6f6 ae3d 08e2 e8b9 8ae6 fcba
0.050608724 -0.007066186 0.02364928 -0.00041649322 0.0067310324 0.027679658 0.015983343 0.120298535
0.0010033908 -0.0023855842 0.0038469953 -0.0003049229 0.08543174 -0.00044418895 -0.001929478

model.3.1.weight f4 [15]
00000000: cb3e cd40 a189 a140 85ac 7c40 8b02 0040
00000010: 05b3 9040 7cbe a140 a18d 9a40 d1a4 a540
00000020: cf6a 7ec0 4ffd 8dc0 6132 f73f 731f 833e
00000030: c1e0 8e40 d2de 25c0 993c d140
6.413915 5.0480504 3.9480298 2.0001552 4.521853 5.0545025 4.8297887 5.176369
-3.975269 -4.4371715 1.931225 0.2560993 4.464936 -2.5917249 6.538647

model.3.1.bias f4 [15]
00000000: a7e5 8a3f 770c c9bf 12a8 b8bf bbad 5ac0
00000010: 908a 5e40 64ab a3bf ecaf b8bf 94c1 a3bf
00000020: 616c 033e 45b8 10bc c8f9 90c0 d4a1 c1c0
00000030: 8097 b0bf 9943 88c0 c29d 4a40
1.0851334 -1.5706929 -1.4426291 -3.4168537 3.4772072 -1.2786679 -1.4428687 -1.279345
0.12834312 -0.008832996 -4.530491 -6.0510044 -1.3796234 -4.2582517 3.1658788

model.3.1.running_mean f4 [15]
00000000: ec2d cac2 b211 03c3 f35e 8ac3 c5c4 27c3
00000010: 9c6f d442 d55e 77c3 f507 3ec3 6c48 bec3
00000020: ad57 1243 db28 73c3 70b5 45c4 d399 1644
00000030: fc5b c1c3 e17f a7c3 e054 4643
-101.08969 -131.06912 -276.7418 -167.76863 106.21799 -247.37044 -190.03108 -380.5658
146.34248 -243.15959 -790.83496 602.4035 -386.71863 -334.99905 198.33154

model.3.1.running_var f4 [15]
00000000: c782 1749 1c98 6549 592e bb49 ddfd 8c47
00000010: fb8b 9048 f459 9a49 6bc0 7649 a90e d849
00000020: 80e2 0448 2575 0049 ef2f 274a 54d3 4548
00000030: 1be2 d849 4b59 4649 01b8 2d49
620588.44 940417.75 1.5333871e+06 72187.73 296031.84 1.2644465e+06 1.0106947e+06 1.7699411e+06
136074.0 526162.3 2.7391958e+06 202573.31 1.7767074e+06 812436.7 711552.06

model.4.0.weight f4 [15, 15, 3, 3, 3]
00000000: 1a14 16c0 b0b7 47c0 72a2 e8bf 4c62 9abf
00000010: 3005 18c0 ce78 513e da89 453f b291 c6bd
00000020: ff38 213f 2ece 77c0 29e3 63c0 250f 053e
00000030: 302a b8bf 6d27 4bc0 b7e4 7d3f 7591 a0bf
00000040: dc27 d5bf 5ba7 2a3f 2520 4cc0 6fea 1cc0
00000050: 64d0 debe 258f cabf 23b0 dfbf f2a4 c43f
00000060: 7bd7 13c0 85cc eabf f950 893e 5374 78c0
00000070: eda8 8bc0 2ecb 48c0 6603 d0bf d448 54c0
00000080: c49b 1ebf 8f00 143f cf03 d0be 28f2 c33e
00000090: aba4 a5c0 b293 95c0 ae28 a3bf 9d1c 10c0
000000a0: 8d33 86c0 71db 433f ccd9 85bf f5e4 e4bf
000000b0: 73b2 053f 4312 72c0 8bce 61c0 bff2 c3bf
000000c0: 1827 acbf 740d a7bf a03a de3f a037 09c0
000000d0: 9cee e5bf 12bf c03e 55be 7dc0 c5d8 8ac0
000000e0: 21ae 58c0 9aec 0bc0 7ca7 57c0 6b2d 9abf
000000f0: 0336 953e 94ce 2abf cf50 8e3d aa0f a6c0
00000100: 60e1 94c0 dc3c aabf 4727 08c0 a58a 70c0
00000110: 72f6 053f e734 9fbf e8ef d8bf 5f01 0a3f
00000120: 8ef4 81c0 4861 66c0 0dbf d1bf 06e3 c1bf
00000130: eba6 a3bf b3f1 d13f d2a7 12c0 cfb7 efbf
00000140: ba86 e33e b1be 533f 95a9 d63f 78b8 da3f
00000150: 059b 9b3e d016 133f d1fb 473f 67e2 b93e
00000160: 468a 523f d736 2e3f 22c5 e73c d9af a73f
00000170: 15c1 b63f d738 97bf de66 7fbe b305 b73e
00000180: d8fd 70bf 97ba bcbe 0878 5fbe cbcc 22bf
00000190: 66c3 9abe aa6a 3cbe 073f 06c0 c24f 14c0
000001a0: 33c8 afbf 75d0 d6bf 279d afbf 2877 c1bf
000001b0: df97 a2bd 274f 8e3e 8940 e63f 16d8 773f
000001c0: e7dd d0be 6732 0740 8d69 423f b2d1 eabd
000001d0: 6bb1 273f 346a 41bf 3f93 21bf 92f4 1f40
000001e0: e5e7 0f3f 9a1f 01c0 9551 3e40 7864 89be
000001f0: eb55 70bf a964 973f e4aa 34bb 3801 ba3e
00000200: f3c7 f43f b77b df3e 4b70 4cbf 2ba5 2740
00000210: 82e4 e1bf afed d6bf a8f9 ab3e 7db6 85c0
00000220: 312b 8ec0 3cc7 56c0 2f46 febf 2aaa 4cc0
00000230: 7639 91bf 82be dc3e d3f8 f4be 52a1 ba3e
00000240: ca16 a1c0 8160 93c0 c85a a1bf 7ad6 02c0
00000250: 287f 73c0 e65a 213f a84b 96bf a344 c1bf
00000260: 923e e73e f023 78c0 3eae 63c0 5214 e4bf
00000270: 382b b1bf 282f a4bf 139c d83f c47f 0fc0
00000280: 6868 fcbf a8b4 c33e 03e9 7fc0 6c4b 86c0
00000290: 777d 4fc0 f02e eabf 979d 44c0 ef48 7dbf
000002a0: d32d ee3e 5c3d 48be 9e30 973e 35e9 a5c0
000002b0: c8cb 96c0 07bb a2bf 592e 0cc0 5459 73c0
000002c0: caca 5a3f b450 58bf 58eb abbf cf01 3f3f
000002d0: 3588 77c0 532c 59c0 04d5 c9bf eec7 79bf
000002e0: bb60 53bf 2ffa ea3f ca39 edbf ad2c bebf
000002f0: 7e63 133f 1b28 8dc0 44e4 93c0 baab 5bc0
00000300: 0711 12c0 319b 62c0 b4a7 a9bf 2387 943e
00000310: 3c7a 16bf dbed 5e3e 93a3 a3c0 c70f 9ec0
00000320: 25cd d0bf 0465 fcbf 7ecf 72c0 a695 da3e
00000330: 29a3 a8bf c6fe ddbf 0972 f83e 2637 7cc0
00000340: 8be6 68c0 a4ef e6bf 2003 acbf dd00 b0bf
00000350: f5a7 b93f d27c 1bc0 0ba1 0dc0 5cbb c53e
00000360: b4b9 3f40 d6fa 4440 1562 1840 778d 7440
00000370: 6995 5040 52c4 2e40 5924 5d40 92c1 4940
00000380: eb83 4140 40db 0c40 e507 3540 a524 2540
00000390: 0391 4c40 7232 6440 7015 5e40 eb5e 2440
000003a0: fa30 2c40 5711 2840 227a 833f 35e5 aa3f
000003b0: b7fb 7f3f fab7 d53f 8a59 d13f 750b dc3f
000003c0: 2647 7e3f fa28 893f ee4a 663f 073c fbbe
000003d0: 9991 70bf 7a5e c5bd 5d40 4bbd e68b d8bf
000003e0: 9d43 1dbe 2102 c8bf 56ed efbf e6b3 e4be
000003f0: b685 d1be 2104 bfbf 24e3 acbe 1740 263c
-2.344977 -3.1205864 -1.8174574 -1.2061248 -2.3753166 0.2045624 0.7716347 -0.09695758
0.62977594 -3.8719592 -3.5607398 0.12994058 -1.4387875 -3.1742814 0.99177116 -1.254439
-1.6652789 0.66661614 -3.189462 -2.4518087 -0.43518364 -1.5824934 -1.7475628 1.5362837
-2.310027 -1.8343664 0.2681959 -3.8820999 -4.364371 -3.137401 -1.6251037 -3.316945
-0.6195643 0.5781335 -0.40627906 0.38270688 -5.176351 -4.674279 -1.274679 -2.2517464
-4.193793 0.76506716 -1.0457091 -1.7882372 0.52225417 -3.7823646 -3.5282314 -1.5308455
-1.344943 -1.305098 1.7361641 -2.14402 -1.7963443 0.37645775 -3.964742 -4.338961
-3.385628 -2.186316 -3.3695974 -1.204511 0.2914277 -0.66721463 0.06949007 -5.189412
-4.6525116 -1.3299823 -2.1273973 -3.7584622 0.5232917 -1.243802 -1.6948214 0.5390834
-4.061103 -3.5996876 -1.6386429 -1.5147407 -1.2785314 1.6401886 -2.291493 -1.8727969
0.44438726 0.82712847 1.6770502 1.7087545 0.30391708 0.57456684 0.78118616 0.36305544
0.8224224 0.6805243 0.028292242 1.310054 1.4277674 -1.1814221 -0.24941584 0.35746536
-0.94137335 -0.36861107 -0.21823132 -0.6359374 -0.30227202 -0.18400064 -2.097597 -2.317368
-1.3732971 -1.6782366 -1.3719834 -1.5114489 -0.07939123 0.27794763 1.7988445 0.96814096
-0.40794298 2.1124513 0.7594231 -0.114657775 0.65505093 -0.7555268 -0.63115305 2.4993024
0.5621322 -2.0175538 2.9737294 -0.26834464 -0.938811 1.1827594 -0.002756768 0.36329055
1.912352 0.43649074 -0.79858845 2.619456 -1.764786 -1.6791285 0.3358891 -4.1785264
-4.4427724 -3.3559103 -1.9865168 -3.197886 -1.1345661 0.43114096 -0.47846088 0.36451203
-5.034032 -4.6055303 -1.2605829 -2.0443406 -3.804636 0.63029325 -1.1741838 -1.5099071
0.45164925 -3.8771935 -3.55751 -1.7818701 -1.3841314 -1.2826891 1.692263 -2.2421732
-1.9719362 0.38223767 -3.998597 -4.196707 -3.2420328 -1.8295574 -3.0721185 -0.9893941
0.46519336 -0.19554657 0.2952928 -5.1847177 -4.7123756 -1.2713326 -2.1903288 -3.8023272
0.8546568 -0.84498143 -1.3431196 0.74612135 -3.8676884 -3.3933303 -1.5768132 -0.97570693
-0.82569474 1.83576 -1.8533261 -1.4857384 0.5757369 -4.4111457 -4.6216145 -3.4323564
-2.2822893 -3.5407221 -1.3254304 0.2900935 -0.58780265 0.21770422 -5.1137176 -4.939426
-1.6312605 -1.9718328 -3.7939143 0.42692298 -1.3174793 -1.7343376 0.48524502 -3.940866
-3.6390712 -1.8041883 -1.3438454 -1.3750263 1.4504381 -2.4294934 -2.2129543 0.38619506
2.9957094 3.0778098 2.3809865 3.8211343 3.2591193 2.7307324 3.4553435 3.1524396
3.0236766 2.200882 2.8286068 2.5803616 3.1963508 3.565579 3.4700584 2.5682933
2.6904893 2.6260583 1.0271647 1.3351198 0.9999346 1.669677 1.635545 1.7190996
0.99327314 1.071563 0.89958084 -0.49069235 -0.93972164 -0.096371606 -0.04962193 -1.6917694
-0.15357824 -1.562565 -1.8744304 -0.44668502 -0.40922326 -1.4923135 -0.33767045 0.010147116

model.4.0.bias f4 [15]
00000000: 83ea 643a c11e d3ba 3ce7 b2ba 980d 523e
00000010: fd2a b13d 538e 2e3e d808 3bbb 3310 09bc
00000020: 98d9 aabb 23d1 0c3b f992 e03b b88e 77bc
00000030: 072b cbb9 a016 c53d bf07 973c
0.0008732455 -0.0016107188 -0.0013649235 0.20512998 0.086507775 0.1704648 -0.0028539207 -0.008365679
-0.0052139275 0.002148696 0.006853458 -0.01510971 -0.00038751235 0.09623456 0.01843631

model.4.1.weight f4 [15]
00000000: d262 5a3f fa7e 2c40 c3c4 2a40 f3c7 e140
00000010: 1f2d dd40 ae87 e140 f34c 3f3f 95d8 a3c0
00000020: e970 86c0 e22a 8140 834e 9540 0f31 d5c0
00000030: 3479 f13f 6af1 cd40 8aa1 be40
0.8530704 2.69525 2.6682594 7.055658 6.911758 7.0478125 0.7472679 -5.120188
-4.201283 4.0364847 4.665834 -6.6622386 1.8865113 6.4357195 5.957219

model.4.1.bias f4 [15]
00000000: 58bd 40c0 82c1 ab3f a40f 0fc0 ad41 603f
00000010: 7dca 8f3f 01bd 473f fa91 07c0 3735 a5bd
00000020: 4ea0 983f 16e4 be40 2d29 fbbe e73e 3abf
00000030: fb82 0240 74ef 783f 410e 813f
-3.0115566 1.3418429 -2.2353296 0.87600213 1.123367 0.7802277 -2.1182847 -0.080667906
1.1923921 5.9653425 -0.49054852 -0.7275223 2.0392444 0.97240376 1.0082475

model.4.1.running_mean f4 [15]
00000000: dce6 3bc3 d606 9b43 8bfa 2cc3 a36d 4343
00000010: b907 5443 0103 1943 f0f7 88c4 37fb 7444
00000020: 1923 4c44 7016 92c2 f14f 8d43 d0af ef43
00000030: 099d 2a43 52cc 3e43 8615 2e43
-187.9018 310.0534 -172.97868 195.42827 212.03017 153.01173 -1095.748 979.92523
816.5484 -73.04382 282.62454 479.37354 170.61342 190.79813 174.08408

model.4.1.running_var f4 [15]
00000000: d8fa 8249 5b17 124a e2d2 2548 be76 214a
00000010: b92f 104a ec27 034a 6f2b ac4a 27ee 894a
00000020: 7cc2 d04a 3347 b548 c8a2 3b48 32d7 dc48
00000030: d974 c748 0418 124a 3abf 054a
1.072987e+06 2.3935588e+06 169803.53 2.6454235e+06 2.3623502e+06 2.148859e+06 5.6416555e+06 4.5196995e+06
6.840638e+06 371257.6 192139.12 452281.56 408486.78 2.393601e+06 2.1913105e+06

model.5.0.weight f4 [15, 15, 3, 3, 3]
00000000: ba26 22c0 2638 c4bf a192 32c0 de41 08bf
00000010: 06b1 09bf b130 46bf a563 a0be dc21 89bd
00000020: 2b02 96bf cdd5 adbf fd83 70be 2d85 27bf
00000030: 31a2 793f 510d 903f c4bd ed3f 12af c5be
00000040: 6cf5 2ebf 14b7 30bf 2653 2ac0 bbff a5bf
00000050: 8b87 d2bf af62 90bf d1bd 06c0 ad3d 6cbf
00000060: 2b4b e2bf d109 e1bf 1db5 e9bf 5738 603f
00000070: 3f09 4e3f eef7 d33e 092c 553d 4d9e b0be
00000080: c5b1 243f f3c0 d93e 44cc b13e 727a cb3d
00000090: f3b4 fcbf a985 4ec0 3d61 bdbf 5dec 21c0
000000a0: c8ca 9bc0 a8bf 25c0 a3e7 c9bf f798 08c0
000000b0: 6561 19c0 bb39 663e 36b0 fcbe 5b44 03bf
000000c0: 32c7 2bbe 8168 c1bf 7573 02bf 8e2b 23bf
000000d0: dc20 9dbf e47a 8fbf 3a4d 20c0 07bc efbf
000000e0: c4c0 f3bf e076 e3bf 127c 82c0 c0a6 4ec0
000000f0: b5d8 24bf f484 18bf ea23 c9bf 3ed4 2ec0
00000100: c56f 09bc 7d9f 273f b146 3cbe f8a4 aebf
00000110: 2c93 9e3f 3bbf 91bf 4f2e 703e 296e 50bf
00000120: 2ea9 05c0 081e 17c0 41e2 aabf a61c dbbe
00000130: ea5f 1bc0 d938 a2bf 6701 f3bf 3963 16c0
00000140: 55e9 dbbf edcb 6b3e e833 113f f073 1abf
00000150: f3d4 713e da53 0a40 54e9 4e3e 0d10 5d3f
00000160: 09e2 ba3f 9f6f 153f 376c a13f 961a 0d40
00000170: a635 53be 9b62 ad3f bded 0242 83fc 1840
00000180: 6232 113f ee48 3240 6116 913f 21a7 5e3f
00000190: 6cb2 823f 33f1 4cbe 036d 9b3f 0895 e73f
000001a0: c014 113e 5fbf d53f 5c7b cb3f 8bfb dc3e
000001b0: bada 65bf cbec c9be 732c e5bf e3f6 b6be
000001c0: 0e62 533f f0f2 00bf 6269 283c 476b 233f
000001d0: 5fc4 3abe 4e81 adbd 8d64 1e3f 7b66 80bf
000001e0: 0d81 d2be c400 1842 6340 7d3f 6a65 10be
000001f0: 83e8 5a3f 452c 753e 43c9 b2be ca38 713e
00000200: 631d 61bf 7c4d e93e aea5 943e f64d acbe
00000210: 9c5a 593f 847f 213f f0c4 a7be bbd4 93bf
00000220: dd5a dcbe 1d28 10c0 0680 29be 1e1e 863f
00000230: 30db e6be 6370 0d3e 5ba0 633f 488d 0bbf
00000240: 5b38 69be a21c d63d a9d8 bebf b4c7 bdbd
00000250: 5892 1c42 e46d 993e e028 213d 5395 1b3f
00000260: c670 10bd 5196 74bf 4a2d 83be 8983 a9bf
00000270: 8192 a93e 6a73 51be ea42 5abf e219 223f
00000280: 04e2 d83e dcce 75bf 3b6b 00c0 fede 01bf
00000290: 18c9 44c0 9286 2fbf e730 0d3f 081a c0bf
000002a0: 4a66 84bf bae5 b13d a25a 17bf 0596 05bf
000002b0: 0466 0340 a336 f7bf 745b f73b dc1c be3f
000002c0: 89df 383d 14b7 d6bf 4f7c 82bd e2a8 7fbf
000002d0: 0636 10c0 3598 4dbf 0065 55c0 7d4c e7bf
000002e0: 7c99 9dbf c575 28c0 e72c f3bf b3f6 64bf
000002f0: 594f f3bf ed62 24bf e232 02c0 1d30 e3bf
00000300: e944 7bbf b3c2 923f 4269 543c 1f43 1ebe
00000310: 6250 953f 6083 ad3f d8e1 4340 040e 833f
00000320: 7479 b73f b654 5040 93cc bc40 1a54 2340
00000330: 7743 9e3f 7ec2 6140 b23e 7340 9ade bb3f
00000340: 8a4a e73e 15e3 743f 6149 54bf 15be 80be
00000350: 3619 fabe 9ba2 f1bf cd67 52bf 1459 15bd
00000360: b141 68bf 4ead eebe 5277 69bf f758 0ec0
00000370: a0cb 19c0 a432 0fc0 d2c5 aebe 0695 913e
00000380: 6217 00c0 4fad 1340 d240 f33f 2228 533f
00000390: 2ba6 80bf 1d31 1fc0 b8c7 5cbf 29b9 773f
000003a0: 4c5b fa3f ead1 d2be 4ad4 393d 02da c73f
000003b0: 8d6e 553e e64e 6ac0 12cd 22c0 53ef bfbf
000003c0: 50b3 32c0 faee b1bf b8c5 24c0 aa5b 24bf
000003d0: b913 5d3e b5b0 48bf ef55 6cbc 40d8 543f
000003e0: 7ba2 f8be f376 103f e18a 7d3f 18e0 b8bc
000003f0: 8bad cf3c 72b1 91be 4b38 16be d382 d83c
-2.5336137 -1.5329635 -2.7901995 -0.53225505 -0.5378574 -0.7741805 -0.31326023 -0.06695911
-1.1719412 -1.3580872 -0.2348785 -0.65437585 0.9751311 1.1254064 1.8573537 -0.3861013
-0.68343234 -0.69029355 -2.661325 -1.2968668 -1.6447614 -1.1280116 -2.1053355 -0.9228161
-1.767919 -1.7581121 -1.8258396 0.8758597 0.8048286 0.41400093 0.05204395 -0.34495774
0.64333755 0.4253002 0.34726155 0.09935464 -1.9742721 -3.226908 -1.47953 -2.5300515
-4.8685036 -2.5898228 -1.5773815 -2.1343362 -2.3965695 0.2248296 -0.49353188 -0.5127618
-0.16775206 -1.5110017 -0.50957423 -0.63738334 -1.2275653 -1.1209378 -2.5047135 -1.8729256
-1.9043202 -1.7770653 -4.0776453 -3.2289276 -0.6439317 -0.5957787 -1.5714085 -2.7317042
-0.008388464 0.65477735 -0.18386342 -1.3644094 1.2388663 -1.1386484 0.23455165 -0.8141809
-2.088451 -2.361208 -1.3350297 -0.42795295 -2.4277291 -1.2673599 -1.8984803 -2.349806
-1.7180582 0.2302701 0.5671983 -0.60333157 0.2361639 2.161368 0.20206195 0.86352617
1.460023 0.58373445 1.261115 2.2047477 -0.20625934 1.3545717 32.732166 2.390412
0.56717503 2.7857013 1.1334955 0.8697377 1.02107 -0.20013885 1.2142643 1.8092356
0.14168072 1.6699027 1.5897021 0.43160662 -0.89786875 -0.3943847 -1.790419 -0.35735235
0.82571495 -0.50370693 0.0102790315 0.6383557 -0.18238972 -0.084719285 0.6187218 -1.0031275
-0.41114083 38.000748 0.9892637 -0.14101186 0.85511035 0.23942669 -0.34919176 0.2355682
-0.87935466 0.45566928 0.29032654 -0.3365323 0.84903884 0.630852 -0.3276744 -1.1549295
-0.43038073 -2.2524483 -0.16552743 1.0477941 -0.45089102 0.13812403 0.8891656 -0.54512453
-0.22775404 0.1045468 -1.490987 -0.09266606 39.142914 0.29966652 0.039345622 0.60774726
-0.0352638 -0.95541865 -0.2562049 -1.3243266 0.33119586 -0.20454183 -0.8525835 0.63320744
0.42359936 -0.9601877 -2.0065448 -0.50730884 -3.0747738 -0.68564713 0.55152744 -1.5007944
-1.0343716 0.08686395 -0.5912267 -0.52182037 2.0531015 -1.9313549 0.007548744 1.4852557
0.045135055 -1.6774621 -0.06371366 -0.9986707 -2.2532973 -0.80310374 -3.3342896 -1.8070217
-1.2312465 -2.632188 -1.8998078 -0.89438933 -1.900859 -0.6421345 -2.0343556 -1.7749058
-0.98152024 1.1465667 0.012964549 -0.15455292 1.1665156 1.3555717 3.0606594 1.0238652
1.433394 3.2551703 5.8999724 2.5520082 1.2364339 3.5274959 3.8007016 1.4677308
0.45174056 0.95659 -0.8292447 -0.2514502 -0.4884736 -1.8877748 -0.8218964 -0.036461905
-0.9072524 -0.46616596 -0.91197693 -2.22418 -2.4030533 -2.2374659 -0.341353 0.28434008
-2.0014272 2.307453 1.9004157 0.8248311 -1.005071 -2.4873726 -0.86242247 0.96766907
1.9559112 -0.41175777 0.04536847 1.5613406 0.20842953 -3.6610656 -2.5437665 -1.4994911
-2.7921944 -1.3901055 -2.5745678 -0.6420237 0.21589555 -0.78394634 -0.014424785 0.8314247
-0.48561463 0.564315 0.9904004 -0.022567794 0.025351306 -0.28455693 -0.14669912 0.02642957

model.5.0.bias f4 [15]
00000000: 4231 2f3b 8085 39bb 8edb 3aba 567d f8ba
00000010: 6a5a 803b a948 e83a 5762 d33b 78e3 ccbc
00000020: f4c2 593c 2a08 d3b9 916d 19bc 32cd 9dbb
00000030: cdd3 093b f4a4 a9bb d2b9 893a
0.002673224 -0.0028308332 -0.0007128053 -0.0018958251 0.003917028 0.001772185 0.006450932 -0.02501081
0.013291109 -0.0004025114 -0.009364502 -0.004815721 0.0021030784 -0.0051771346 0.0010507649

model.5.1.weight f4 [15]
00000000: 1bf2 3940 e907 9a40 f44a 4540 048f 3e40
00000010: 3b98 893f 4d81 ba40 1f18 5040 045f ff40
00000020: f69c 9640 24b2 c8bf f463 fbbf 8b11 a040
00000030: 1fc2 9240 1765 9e3f dd98 8ec0
2.905402 4.8134656 3.0826998 2.977479 1.0749582 5.828284 3.2514722 7.9803486
4.7066603 -1.5679364 -1.9639878 5.0021415 4.5861964 1.23746 -4.45616

model.5.1.bias f4 [15]
00000000: 3227 3140 84e5 c1bf 21cd 5e40 74dd 65bf
00000010: 02f5 1a40 8762 8440 4360 24c0 37b9 0ec0
00000020: bf65 86c0 7d1c 18c0 cb4a 30c0 8ef1 c140
00000030: aac6 8940 3e90 c0bf 60cb 63c0
2.7680173 -1.5148168 3.48127 -0.89791036 2.421204 4.1370273 -2.5683753 -2.2300546
-4.19992 -2.3767388 -2.754565 6.0607367 4.305501 -1.5044019 -3.559288

model.5.1.running_mean f4 [15]
00000000: 462a 2444 0e21 66c4 c5ca 6744 808f 34c4
00000010: 6af6 87bf 85a5 0744 09c5 d343 e065 6fc3
00000020: 3cd4 d341 4256 3c42 8e38 0844 902f e443
00000030: b66a 2c44 e7b4 3ac4 4326 3444
656.6605 -920.5165 927.1683 -722.2422 -1.0622075 542.58624 423.53934 -239.39795
26.47863 47.084236 544.88367 456.37158 689.66736 -746.8266 720.59784

model.5.1.running_var f4 [15]
00000000: 0176 f549 324e db4a 4f5e 8a4a 1763 9848
00000010: 7984 9648 5ceb a749 db9c 6748 9f4b 964a
00000020: 56a7 9349 9ac9 a348 6692 1b48 b5d1 1d49
00000030: 9982 f449 5456 8d48 0775 3448
2.0108161e+06 7.186201e+06 4.5340555e+06 312088.72 308259.78 1.3755955e+06 237171.42 4.9248795e+06
1.2095788e+06 335436.8 159305.6 646427.3 2.0030271e+06 289458.62 184788.11
