v3/py2tfjs/meshnet.pth (torch, 43490 bytes, 56 tensors)

model.0.conv.weight f4 [5, 1, 3, 3, 3]
0.16530196 0.2638468 -0.06468366 -0.32950935 -0.17209496 0.18475582 -0.16217569 0.140128
0.012411288 -0.23732156 -0.19629401 -0.11750074 0.19379959 0.061734825 -0.19605535 -0.033895317
0.08351787 -0.19493698 0.06724414 -0.13905928 0.21516195 0.08690846 0.44912517 -0.14660038
-0.019962685 -0.0760355 0.13501522 -0.14576963 0.015991524 0.11877067 0.22421177 -0.14952901
0.060856435 -0.06192925 0.046593554 -0.049720433 0.25168818 -0.34104076 0.050209407 0.3666303
-0.19372644 -0.1191184 -0.07910264 0.18820414 0.1400967 0.030136734 0.18649691 0.14903618
0.029708346 -0.3891352 -0.14584388 -0.25843 0.12376963 -0.047210615 0.08278549 0.08294014
-0.14743349 -0.08736809 -0.19270597 0.25962108 -0.31256074 0.11052974 0.15643634 -0.14346987
-0.18140864 0.274905 0.46726924 0.12260031 0.39754626 0.15767322 0.034204282 -0.11259393
0.15598482 -0.32150283 -0.13042854 -0.09672657 0.036030177 0.18239927 -0.21087196 -0.23202936
0.14981708 0.18121591 0.20920737 0.17023703 0.029319603 -0.0391989 -0.26249728 -0.31081054
-0.16739166 -0.035011094 0.050026707 0.12353545 -0.22307661 -0.15730686 -0.13538298 -0.16136564
-0.20087002 -0.40349317 -0.12728584 -0.12573811 0.18204294 0.42193308 -0.19376919 0.03893542
0.04945542 -0.2783274 0.06561642 0.282423 -0.16584845 0.037869744 0.26005 -0.17350796
0.45197284 -0.20650356 -0.07481589 -0.50126606 0.23211591 0.0180752 -0.3395646 -0.11167489
-0.19209848 0.21191256 -0.008694227 0.4119513 0.20925842 -0.004452041 -0.01224034 0.1143307
0.056919634 -0.1574348 -0.08239407 -0.12284711 0.11041015 -0.22086903 -0.04219032
00000000: eb44 293e ee16 873e de78 84bd 73b5 a8be
00000010: a939 30be a130 3d3e 6211 26be b77d 0f3e
00000020: b758 4b3c 6c04 73be 4c01 49be 3aa4 f0bd
00000030: 6673 463e a8dd 7c3d bcc2 48be d1d5 0abd
00000040: 6b0b ab3d 8f9d 47be 4cb7 893d 8e65 0ebe
00000050: 6a53 5c3e 10fd b13d bcf3 e53e 691e 16be
00000060: c988 a3bc 80b8 9bbd 6e41 0a3e a244 15be
00000070: a800 833c 093e f33d c597 653e 221e 19be
00000080: 9944 793d 86a9 7dbd e2d8 3e3d a7a7 4bbd
00000090: 46dd 803e e59c aebe 61a8 4d3d f7b6 bb3e
000000a0: 3960 46be 59f4 f3bd 9100 a2bd 96b8 403e
000000b0: 8275 0f3e 50e1 f63c 0cf9 3e3e f19c 183e
000000c0: eb5e f33c bb3c c7be 1958 15be f050 84be
000000d0: ef7a fd3d eb5f 41bd 708b a93d 85dc a93d
000000e0: cef8 16be 0bee b2bd b754 45be 0eed 843e
000000f0: f607 a0be 6b5d e23d d930 203e c4e9 12be
00000100: 30c3 39be 59c0 8c3e ea3d ef3e df15 fb3d
00000110: 2f8b cb3e 1775 213e ca19 0c3d a597 e6bd
00000120: 7cba 1f3e 059c a4be 0f8f 05be 9418 c6bd
00000130: 6194 133d e0c6 3a3e d2ee 57be 1b99 6dbe
00000140: a669 193e aa90 393e 753a 563e 9e52 2e3e
00000150: aa2f f03c 078f 20bd 0b66 86be 8f22 9fbe
00000160: b868 2bbe cb67 0fbd cee8 4c3d 2700 fd3d
00000170: 326e 64be 0d15 21be d6a1 0abe 093d 25be
00000180: dfb0 4dbe a896 cebe 3857 02be 7ec1 00be
00000190: 7769 3a3e 9d07 d83e 6e6b 46be bf7a 1f3d
000001a0: c491 4a3d ee80 8ebe e761 863d bf99 903e
000001b0: 2dd4 29be 4e1d 1b3d 4625 853e 12ac 31be
000001c0: fc68 e73e ab75 53be 1339 99bd f952 00bf
000001d0: cbaf 6d3e 7112 943c 69db adbe ceb5 e4bd
000001e0: 77b5 44be 9bff 583e 3b72 0ebc 48eb d23e
000001f0: d747 563e 6de2 91bb b58b 48bc 3726 ea3d
00000200: 9024 693d 9736 21be 39be a8bd 4497 fbbd
00000210: b71e e23d 7e2b 62be c2cf 2cbd

model.0.conv.bias f4 [5]
0.03261044 0.04230475 0.1422133 0.028065402 -0.01597912
00000000: 8692 053d bf47 2d3d 5da0 113e 6ae9 e53c
00000010: a5e6 82bc

model.0.bnorm.weight f4 [5]
0.8889988 1.178388 1.1478707 0.62529635 0.7815598
00000000: 6d95 633f 6bd5 963f 6ded 923f 6c13 203f
00000010: 4e14 483f

model.0.bnorm.bias f4 [5]
-0.16233031 0.092455216 -0.41539523 0.032089792 0.3111806
00000000: eb39 26be 2959 bd3d afae d4be 9670 033d
00000010: 1053 9f3e

model.0.bnorm.running_mean f4 [5]
0.01174374 0.045234594 0.5153423 -0.78725284 -0.24260612
00000000: d168 403c e947 393d 79ed 033f 6789 49bf
00000010: bd6d 78be

model.0.bnorm.running_var f4 [5]
0.08833775 0.102138676 0.44445404 1.5653675 0.17517258
00000000: 6cea b43d 152e d13d 7b8f e33e f65d c83f
00000010: 7160 333e

model.1.conv.weight f4 [5, 5, 3, 3, 3]
0.08182886 -0.11755283 0.1027943 -0.0847933 -0.105778545 -0.0030340739 0.19972321 -0.006184741
-0.201881 -0.14622375 0.22912383 0.1614063 -0.09844976 -0.01775753 0.069876395 0.11692943
0.18773392 0.27750212 -0.12319011 -0.054195464 -0.06938341 0.14173898 0.019945538 -0.5351243
0.19856642 0.055422507 -0.19360232 -0.26439825 0.12991859 -0.2879164 -0.038964413 0.2749849
0.0049744365 -0.18519677 -0.08645354 0.3222975 -0.22192974 0.14969796 -0.018195339 0.05053201
0.22432818 0.24984342 -0.016734557 -0.07709176 -0.104975134 -0.23674236 0.006536843 -0.32570052
-0.027094534 0.4172838 -0.15413347 -0.47774523 0.11322641 0.07544604 0.04771994 -0.21451283
-0.2593049 -0.15144332 0.09645269 -0.10801277 -0.32411662 0.16211542 0.15843381 -0.20706782
0.1968515 0.022370579 -0.18348725 0.20765904 -0.47162613 0.019832723 -0.063580334 0.034080654
-0.22453383 -0.059497073 -0.05913583 0.2563818 -0.18012269 -0.25241572 0.30593517 0.23489293
0.047406007 0.20430592 -0.114204995 -0.06747537 -0.019242313 -0.113307044 0.055811677 0.010485589
-0.11374748 -0.13828126 0.28440174 0.18575361 0.0029819799 0.13353755 -0.012838734 0.28445372
0.14837052 -0.12198979 0.060470026 0.047971793 0.058619745 0.077682905 0.06443501 -0.055573456
0.09568491 0.22401027 -0.17134403 0.12896793 -0.095949166 0.113435164 -0.10915892 0.10716016
0.23602004 0.030132279 0.024418257 -0.030637473 -0.23960716 0.12303335 -0.0312173 -0.09402312
0.1084239 -0.045267437 -0.11492342 0.10185947 -0.005196105 -0.22232625 0.1635921 0.07989368
0.02926401 -0.10065119 -0.13826098 0.23984364 0.28788683 0.015490103 -0.09498314 -0.09014042
-0.14355862 -0.065924734 -0.033145223 -0.063622445 -0.47098625 -0.21806282 -0.089863166 -0.07410494
0.10704947 -0.20056124 0.5115318 0.26570117 -0.12501985 0.19585274 0.037698332 0.043044128
0.3695666 0.08547107 -0.017354269 0.033200007 0.023600394 0.027659187 0.523138 -0.24337819
0.08795248 0.09812705 0.026746742 -0.058675744 0.19652301 0.2087672 -0.39818832 0.12349494
-0.0881001 -0.1964823 0.01504892 0.07856928 -0.04688834 0.31788516 0.049001846 0.15828465
0.22783484 0.09019468 0.19201769 -0.13391705 0.14255968 -0.3006292 0.25983545 -0.08072702
0.17623976 -0.08028253 -0.15791112 -0.15116632 0.07977205 -0.043714885 -0.23817931 0.112229906
0.13235171 -0.11671595 -0.13335524 -0.07016366 0.21377426 -0.16585943 -0.10488393 -0.20544212
0.03596501 -0.18697213 -0.32933626 -0.08055935 -0.14691585 -0.06407572 0.09593725 -0.22592984
-0.04307024 0.031108059 -0.29545245 -0.20650789 0.376038 -0.12204122 0.14259209 0.027276566
0.0704231 -0.081759445 -0.019688759 -0.18924811 -0.11744815 0.073160276 -0.20902929 -0.16677958
-0.23798391 -0.16039366 0.119598515 0.21195881 0.0036778622 0.29647875 -0.04760024 0.0677233
0.10114041 0.026143186 -0.014380296 -0.16418761 0.019117143 -0.013837677 -0.01940234 0.025000097
-0.16894619 -0.10035842 -0.1417544 0.06604832 -0.20844617 0.29443473 -0.056833755 0.025363829
0.11632955 0.15678461 0.007627201 0.0052617374 -0.058461256 0.09887529 -0.12391106 0.056951195
00000000: e495 a73d 8abf f0bd d185 d23d 1ca8 adbd
00000010: 6ca2 d8bd 50d7 46bb 3e84 4c3e 5ea9 cabb
00000020: e5b9 4ebe aebb 15be 709f 6a3e b147 253e
00000030: 07a0 c9bd 3d78 91bc 5b1b 8f3d b278 ef3d
00000040: 523d 403e c214 8e3e 194b fcbd 10fc 5dbd
00000050: e418 8ebd 0624 113e d364 a33c e8fd 08bf
00000060: ff54 4b3e b602 633d b03f 46be 355f 87be
00000070: 6109 053e c769 93be 2699 1fbd d2ca 8c3e
00000080: 9900 a33b 39a4 3dbe 8e0e b1bd 2e04 a53e
00000090: 8d41 63be 6c4a 193e 640e 95bc a7fa 4e3d
000000a0: 49b6 653e f4d6 7f3e e916 89bc 49e2 9dbd
000000b0: 34fd d6bd 976c 72be 0333 d63b 38c2 a6be
000000c0: 5bf5 ddbc 39a6 d53e 2ad5 1dbe 069b f4be
000000d0: 3fe3 e73d 7483 9a3d fc75 433d 40a9 5bbe
000000e0: 9dc3 84be f513 1bbe fd88 c53d cd35 ddbd
000000f0: 9df2 a5be 9601 263e 793c 223e 9609 54be
00000100: 7193 493e 8142 b73c 15e4 3bbe 92a4 543e
00000110: fb78 f1be 3c78 a23c 6836 82bd 2898 0b3d
00000120: 32ec 65be 34b3 73bd 6938 72bd 7a44 833e
00000130: 1572 38be a23c 81be 89a3 9c3e c687 703e
00000140: cd2c 423d 9235 513e 4fe4 e9bd 8730 8abd
00000150: 0ea2 9dbc 860d e8bd c99a 643d bfcb 2b3c
00000160: 70f4 e8bd 9a99 0dbe 1b9d 913e 3236 3e3e
00000170: 526d 433b 11be 083e 8e59 52bc eba3 913e
00000180: 71ee 173e c8d5 f9bd 6baf 773d 127e 443d
00000190: 421b 703d 3718 9f3d 81f6 833d fea0 63bd
000001a0: 73f6 c33d f362 653e cf74 2fbe 2b10 043e
000001b0: ff80 c4bd b250 e83d b68e dfbd c976 db3d
000001c0: 3daf 713e f8d7 f63c cc08 c83c 70fb fabc
000001d0: 945b 75be e9f8 fb3d 6cbb ffbc 328f c0bd
000001e0: 5a0d de3d 596a 39bd f85c ebbd b39b d03d
000001f0: 1744 aabb 7ea9 63be b084 273e 4c9f a33d
00000200: 14bb ef3c 3622 cebd 4994 0dbe 9299 753e
00000210: e765 933e 33ca 7d3c 8586 c2bd 8a9b b8bd
00000220: 0801 13be 8c03 87bd 49c3 07bd 7c4c 82bd
00000230: 1c25 f1be dc4b 5fbe 2e0a b8bd 55c4 97bd
00000240: c13c db3d ed5f 4dbe bff3 023f fc09 883e
00000250: 3405 00be 9f8d 483e 9169 1a3d 0a4f 303d
00000260: d537 bd3e 750b af3d 8a2a 8ebc bbfc 073d
00000270: 9d55 c13c 8595 e23c 5fec 053f 2238 79be
00000280: 6e20 b43d d6f6 c83d fc1b db3c fa55 70bd
00000290: 543d 493e 12c7 553e 57df cbbe eaea fc3d
000002a0: d36d b4bd a832 49be bf8f 763c eee8 a03d
000002b0: fd0d 40bd d8c1 a23e 29b6 483d 5f15 223e
000002c0: 894d 693e fdb7 b83d 49a0 443e 8d21 09be
000002d0: 2afb 113e 12ec 99be 2709 853e 3554 a5bd
000002e0: 3278 343e 2b6b a4bd 74b3 21be 58cb 1abe
000002f0: 875f a33d 610e 33bd 47e5 73be cbd8 e53d
00000300: 3587 073e c608 efbd 478e 08be f7b1 8fbd
00000310: a4e7 5a3e 0ed7 29be 63cd d6bd 6b5f 52be
00000320: 0c50 133d 9f75 3fbe c39e a8be 4dfc a4bd
00000330: 1c71 16be 223a 83bd c07a c43d 275a 67be
00000340: 6c6a 30bd 54d6 fe3c 8b45 97be ce76 53be
00000350: 0e88 c03e bff0 f9bd a903 123e 1b73 df3c
00000360: fc39 903d 7f71 a7bd 524a a1bc 42ca 41be
00000370: a888 f0bd 0ed5 953d c60b 56be 44c8 2abe
00000380: 0eb2 73be 3c3e 24be 11f0 f43d bb0b 593e
00000390: 4a08 713b 10cc 973e 78f8 42bd 83b2 8a3d
000003a0: b422 cf3d 3c2a d63c 559b 6bbc cc20 28be
000003b0: 8e9b 9c3c 6db7 62bc a8f1 9ebc 01cd cc3c
000003c0: 3b00 2dbe b788 cdbd 1128 11be 5744 873d
000003d0: ea72 55be 26c0 963e 83ca 68bd cec7 cf3c
000003e0: 303e ee3d 258c 203e 99ed f93b a76a ac3b
000003f0: 1275 6fbd 217f ca3d 15c5 fdbd a845 693d

model.1.conv.bias f4 [5]
0.092226885 0.03121536 -0.030467264 0.05955159 -0.07312284
00000000: 73e1 bc3d 5bb7 ff3c 7c96 f9bc 5eec 733d
00000010: 6dc1 95bd

model.1.bnorm.weight f4 [5]
0.8986205 0.5734225 0.6888526 1.0560193 0.7276384
00000000: fe0b 663f d1cb 123f a558 303f a42b 873f
00000010: 8346 3a3f

model.1.bnorm.bias f4 [5]
-0.51069516 0.5898182 0.5633045 -0.39687923 0.16910934
00000000: ebbc 02bf 53fe 163f b934 103f c133 cbbe
00000010: 002b 2d3e

model.1.bnorm.running_mean f4 [5]
0.1207963 0.13263988 -0.19593455 0.41778594 -0.3684905
00000000: 0d64 f73d c0d2 073e 11a3 48be 0ae8 d53e
00000010: c9aa bcbe

model.1.bnorm.running_var f4 [5]
1.5668076 1.4587996 2.0531707 0.9159891 1.4530054
00000000: 278d c83f f2b9 ba3f 2667 0340 437e 6a3f
00000010: 15fc b93f

model.2.conv.weight f4 [5, 5, 3, 3, 3]
-0.12240757 -0.08895242 0.08466 0.014407419 0.016210524 0.06959637 -0.10492495 -0.12141012
-0.06697791 -0.2887849 0.26191625 0.12723303 -0.049263295 0.36869198 0.15328366 0.031715017
-0.0046448405 -0.13229202 0.042928576 0.2657074 -0.26491207 -0.23538388 0.28947082 -0.044162698
-0.058559723 -0.24528448 -0.030074015 0.14977102 0.11982684 -0.07169374 0.15545052 0.1672719
-0.043838713 0.12817319 0.27855363 -0.16854367 -0.06467407 -0.0324686 0.08748622 -0.08843539
-0.05704891 0.048881926 -0.15362191 0.19047584 0.08355135 -0.28561482 -0.24105664 -0.07642162
-0.10170488 -0.1505193 -0.115763344 -0.022788374 -0.11420671 -0.12993152 -0.21956737 -0.05357538
0.024223069 -0.10038429 0.20166185 0.0418694 -0.02331282 -0.03722166 0.09247658 -0.16497666
0.15981433 0.02092258 0.007308766 0.37602797 0.19232692 0.043367576 -0.03868798 0.029496022
-0.061877668 0.17199498 0.24967238 -0.012380288 0.18034282 0.23582305 -0.0868123 0.17614248
0.14088878 0.30777732 0.021738911 -0.21566631 0.2090431 -0.15927334 0.081572436 0.06284987
0.017790046 -0.09848796 0.09923082 0.41500288 -0.008478118 0.32776505 0.26854262 0.21497226
0.20145753 0.09613574 0.07283947 0.056610458 0.37456334 0.026866987 0.20122406 0.4657246
0.38532034 -0.049781967 -0.027394442 -0.056064304 -0.18993177 -0.10026464 -0.38190556 -0.27285522
-0.27107677 -0.23558813 -0.19145891 -0.42047343 -0.13297527 0.1042649 0.19320212 -0.21648903
-0.010773994 -0.027555825 -0.06702631 -0.003534475 -0.055550497 0.023463108 0.2585281 0.0999978
-0.15503785 0.15570776 0.15338722 -0.037591908 0.08634155 0.13234383 0.14759248 -0.120855056
-0.097362675 0.06862701 0.059335977 0.2223904 0.055699818 0.0069626975 0.052566946 0.08433783
-0.03749242 -0.004245013 0.22331536 0.12916599 0.36064714 0.23964898 0.0364913 0.037510324
0.21460968 0.089997955 -0.21121746 0.08023467 0.05981149 -0.031810094 0.13364537 0.08327365
-0.008948495 -0.049917504 0.059690263 -0.1206513 0.07466778 0.011311498 -0.005607875 -0.15382408
0.00091541884 -0.02430039 0.03452717 -0.022612821 0.18307263 -0.033909693 0.14693555 0.8156965
0.0027982662 0.06558642 -0.23777895 -0.006155201 0.06758785 -0.07019012 0.042290848 0.08610878
-0.21855405 -0.018082019 -0.04594415 -0.015120679 0.011243316 -0.05546559 0.02104959 -0.07249888
-0.097197935 0.20470265 -0.122395 -0.014644 -0.10957444 0.040554818 -0.31017235 0.15865134
-0.11483594 -0.19953996 0.8792441 -0.18660723 -0.023787063 -0.25861824 0.069977045 0.09622253
-0.15945101 0.07774076 -0.05897731 -0.5244339 -0.15082476 0.03300282 0.072106175 -0.03733429
0.00314825 -0.043972284 -0.019496482 -0.02451447 0.050510045 -0.06926613 0.115529686 0.045305572
0.059398666 -0.0764235 -0.20871788 -0.06546836 -0.16360795 -0.11892364 -0.07020165 -0.009336465
0.009675183 0.031905256 -0.075793505 -0.08403673 -0.020274036 0.0016845372 -0.06508332 -0.04204599
-0.025333554 0.06989456 0.05198149 0.008009289 -0.09272498 0.04774146 -0.105818406 0.0829505
0.05719649 0.06962236 -0.027364077 0.06893663 -0.11813885 -0.018484324 -0.031389643 -0.16080873
00000000: d2b0 fabd b02c b6bd 3962 ad3d 180d 6c3c
00000010: efcb 843c 8b88 8e3d e4e2 d6bd dea5 f8bd
00000020: b72b 89bd 9ddb 93be e319 863e 6049 023e
00000030: 4fc8 49bd 32c5 bc3e 64f6 1c3e 9be7 013d
00000040: bf33 98bb 8f77 07be e0d5 2f3d cd0a 883e
00000050: 8ea2 87be 7908 71be 8535 943e f2e3 34bd
00000060: 52dc 6fbd db2b 7bbe c85d f6bc 935d 193e
00000070: c667 f53d 2bd4 92bd 6c2e 1f3e 5349 2b3e
00000080: 3990 33bd d53f 033e 959e 8e3e b696 2cbe
00000090: d773 84bd cbfd 04bd fa2b b33d 9d1d b5bd
000000a0: 1eac 69bd 6a38 483d 104f 1dbe 190c 433e
000000b0: f81c ab3d 1b3c 92be 8dd7 76be f082 9cbd
000000c0: a64a d0bd bb21 1abe 5515 edbd afae babc
000000d0: 35e5 e9bd c50c 05be 45d6 60be dc71 5bbd
000000e0: 756f c63c 4796 cdbd 7280 4e3e 3f7f 2b3d
000000f0: 87fa bebc bd75 18bd 5c64 bd3d a4ef 28be
00000100: 5ea6 233e d565 ab3c 5f7e ef3b bd86 c03e
00000110: 59f1 443e 33a2 313d 4a77 1ebd a4a1 f13c
00000120: 7073 7dbd 741f 303e 1eaa 7f3e b1d6 4abc
00000130: caab 383e 997b 713e a6ca b1bd b25e 343e
00000140: 2645 103e fd94 9d3e cd15 b23c a1d7 5cbe
00000150: 650f 563e 8d18 23be 730f a73d 6fb7 803d
00000160: 6ebc 913c 0eb4 c9bd 8739 cb3d 427b d43e
00000170: cee7 0abc d2d0 a73e 6b7e 893e b021 5c3e
00000180: e24a 4e3e d1e2 c43d dc2c 953d 5ee0 673d
00000190: c4c6 bf3e 2818 dc3c ae0d 4e3e 7473 ee3e
000001a0: b548 c53e 2de8 4bbd 4f6a e0bc afa3 65bd
000001b0: 797d 42be 8c57 cdbd 2089 c3be aeb3 8bbe
000001c0: 93ca 8abe 043e 71be ce0d 44be 4b48 d7be
000001d0: ab2a 08be d688 d53d c7d6 453e 4daf 5dbe
000001e0: 6885 30bc c1bc e1bc 1745 89bd a7a2 67bb
000001f0: eb88 63bd b435 c03c cc5d 843e a6cb cc3d
00000200: 3ec2 1ebe db71 1f3e 8a11 1d3e f9f9 19bd
00000210: d7d3 b03d 2485 073e 7c22 173e db82 f7bd
00000220: 1566 c7bd 518c 8c3d 480a 733d 4fba 633e
00000230: 7e25 643d 5727 e43b 7050 573d 50b9 ac3d
00000240: a791 19bd c019 8bbb c8ac 643e 1744 043e
00000250: bea6 b83e 8b66 753e e777 153d 6da4 193d
00000260: a4c2 5b3e d950 b83d 6449 58be 1352 a43d
00000270: e5fc 743d 4d4b 02bd 55da 083e 608b aa3d
00000280: b59c 12bc 4c76 4cbd c77d 743d 0718 f7bd
00000290: 6ceb 983d dc53 393c 44c2 b7bb 0f84 1dbe
000002a0: b8f8 6f3a 9d11 c7bc 5d6c 0d3d 863e b9bc
000002b0: 6477 3b3e e4e4 0abd 4676 163e 7cd1 503f
000002c0: 1e63 373b 2c52 863d 537c 73be 91b1 c9bb
000002d0: 806b 8a3d d6bf 8fbd 2b39 2d3d cd59 b03d
000002e0: a2cc 5fbe be20 94bc ef2f 3cbd b9bc 77bc
000002f0: e335 383c e32f 63bd 3170 ac3c 4b7a 94bd
00000300: b60f c7bd 929d 513e 3baa fabd 63ed 6fbc
00000310: 9068 e0bd cf1c 263d e9ce 9ebe 7f75 223e
00000320: 1b2f ebbd 3454 4cbe 2416 613f f715 3fbe
00000330: 16dd c2bc 9c69 84be 2050 8f3d 5110 c53d
00000340: 2047 23be 8c36 9f3d 3192 71bd 4d41 06bf
00000350: ce71 1abe f72d 073d 67ac 933d d7eb 18bd
00000360: df52 4e3b 481c 34bd 16b7 9fbc 92d2 c8bc
00000370: 9fe3 4e3d 67db 8dbd d49a ec3d 5692 393d
00000380: 044c 733d ed83 9cbd 24ba 55be 4714 86bd
00000390: d888 27be 3d8e f3bd e2c5 8fbd f9f7 18bc
000003a0: a984 1e3c 16af 023d a039 9bbd 731b acbd
000003b0: bc15 a6bc b0cb dc3a 674a 85bd 6a38 2cbd
000003c0: 5088 cfbc e124 8f3d 8bea 543d 6539 033c
000003d0: 98e6 bdbd 8d8c 433d 52b7 d8bd f4e1 a93d
000003e0: de46 6a3d 2b96 8e3d a12a e0bc a62e 8d3d
000003f0: c8f2 f1bd 706c 97bc 6d92 00bd 0bab 24be

model.2.conv.bias f4 [5]
-0.070512176 -0.009103922 0.025054684 -0.045872062 -0.010124033
00000000: b068 90bd 9e28 15bc 7b3f cd3c 58e4 3bbd
00000010: 46df 25bc

model.2.bnorm.weight f4 [5]
0.7952077 1.052998 0.8878521 0.88439685 1.1589534
00000000: bb92 4b3f a3c8 863f 464a 633f d567 623f
00000010: 9658 943f

model.2.bnorm.bias f4 [5]
0.079585694 0.954386 0.22467883 -0.13406624 -0.54145855
00000000: d3fd a23d a452 743f 3512 663e a948 09be
00000010: 079d 0abf

model.2.bnorm.running_mean f4 [5]
0.7738012 0.014246506 0.375079 -0.91978264 -3.1689615
00000000: d617 463f 2d6a 693c 5b0a c03e e076 6bbf
00000010: 44d0 4ac0

model.2.bnorm.running_var f4 [5]
1.3323781 0.6886101 1.1135502 1.4478976 2.6730874
00000000: 5e8b aa3f c048 303f d088 8e3f b554 b93f
00000010: dd13 2b40

model.3.conv.weight f4 [5, 5, 3, 3, 3]
0.1602318 -0.057758335 0.08422201 0.11082653 -0.45114762 -0.20931229 0.11078267 -0.060049135
-0.04118521 0.10932829 -0.07529277 -0.044605136 0.13135575 -0.7596714 -0.17683886 -0.09266726
-0.08705181 -0.112451285 0.03394182 0.03161905 0.08304874 -0.10336375 -0.04069565 0.04053909
0.0012601329 0.0587949 0.0001451914 -0.059059385 0.08930564 -0.012347693 -0.079286866 0.10233865
0.002108122 0.0430988 -0.035818163 -0.025202977 -0.110278785 0.0266051 0.08326122 0.2119607
-0.79983026 0.12302025 0.12823722 0.07516942 0.12182382 -0.017505525 0.04060272 -0.022424366
-0.058295757 -0.10866041 0.0059057428 0.08389303 0.016640801 -0.05199162 -0.082047984 0.009312422
-0.013288939 -0.070951596 -0.02708498 -0.006624998 -0.22407982 0.055507477 -0.036706667 -0.061780572
0.05064055 -0.08374927 0.2195624 -0.39998674 -0.09743089 -0.1085155 0.15514684 -0.11590263
-0.09134552 0.023890333 -0.08026043 0.10293146 0.22524308 0.02565894 -0.13891876 -0.12599367
0.06767893 -0.014992836 -0.106628686 0.017638138 -0.21004076 -0.017811725 0.0053851325 -0.047966607
-0.04536776 0.029373262 -0.20979588 -0.10927167 0.13273406 -0.27185994 -0.006888443 -0.092901565
0.00083055184 -0.055349503 0.0878809 -0.120226115 -0.0530637 -0.0051707085 -0.05347551 -0.24940704
-0.15194681 -0.08417475 -0.118248686 -0.04307572 -0.13165222 0.04779912 -0.0046112835 0.08798205
0.23513265 0.02927168 -0.11502553 -0.11036015 -0.01995009 0.07161686 0.17736183 0.028671617
0.14842227 0.6166656 0.13943645 0.19671951 0.19771838 0.09540005 -0.06895782 -0.069217384
-0.085593045 0.012714301 -0.065278076 -0.026900848 -0.014313986 -0.047145452 0.0032734727 -0.12773752
-0.17171 0.20366827 -0.17716551 0.07438462 -0.09596801 -0.4169725 -0.15678144 -0.010708163
-0.11706159 0.0070838206 0.17289072 -0.0076908516 0.60038763 0.12920566 -0.020969117 0.10706221
-0.10160041 0.035567056 0.15170181 0.024508106 -0.08465976 0.023870042 -0.14853656 0.022206498
0.14736335 -0.02436713 -0.0391755 -0.022812426 -0.015311941 0.06022131 0.022849886 0.07770713
-0.036857978 -0.04029569 -0.012137873 0.0856872 -0.013764461 -0.056183178 -0.117435776 0.77148676
0.017087597 -0.12442789 0.04581321 -0.007769885 0.10904362 -0.061673485 0.10446886 -0.041087564
0.23177336 0.04337414 0.01370752 0.0773031 0.048016254 0.2640195 -0.004169123 -0.04642516
0.1537451 -0.017170345 -0.16016887 0.1546287 0.0069967485 -0.022211138 0.110835105 -0.12172637
0.024793409 0.07468206 0.30995953 -0.12718053 0.24390614 -0.2163659 -0.10228495 -0.06074837
-0.08183605 -0.06778467 0.21421976 -0.15552579 -0.1090394 0.14568591 0.05762793 -0.10802584
0.11673075 0.08148389 0.12245155 0.18285273 -0.07516867 0.027566087 0.19086902 0.008938598
0.0041723843 0.12624818 -0.044908065 -0.24008815 0.12868115 0.14953712 -0.09129858 0.17215677
-0.13151084 -0.056902505 0.02656254 -0.008569718 0.00312511 0.061544 0.03583552 0.14113007
-0.052476324 -0.079170205 0.047867626 0.045804802 0.10967453 0.2995741 -0.14093356 -0.20568757
0.08460934 0.01570793 -0.1347806 0.05069163 -0.112651095 -0.13452902 -0.079953425 -0.41949576
00000000: ce13 243e 0194 6cbd 977c ac3d 05f9 e23d
00000010: d2fc e6be f655 56be 06e2 e23d 15f6 75bd
00000020: d3b1 28bd 83e7 df3d 1933 9abd e0b3 36bd
00000030: 1f82 063e d379 42bf 3f15 35be 55c8 bdbd
00000040: 3848 b2bd dc4c e6bd 9406 0b3d fa82 013d
00000050: 7515 aa3d 60b0 d3bd 7bb0 26bd 510c 263d
00000060: 0b2b a53a ecd2 703d 853e 1839 41e8 71bd
00000070: e0e5 b63d fa4d 4abc 2761 a2bd ed96 d13d
00000080: 6b28 0a3b 5e88 303d 11b6 12bd 7976 cebc
00000090: d8d9 e1bd f0f2 d93c dc84 aa3d 3a0c 593e
000000a0: adc1 4cbf 0af2 fb3d 9e50 033e 6df2 993d
000000b0: c47e f93d bf67 8fbc 0a4f 263d 4eb3 b7bc
000000c0: 88c7 6ebd 5989 debd f684 c13b 1cd0 ab3d
000000d0: 4a52 883c 2af5 54bd c608 a8bd 2193 183c
000000e0: dab9 59bc 124f 91bd 52e1 ddbc 8316 d9bb
000000f0: 2e75 65be cf5b 633d bb59 16bd a00d 7dbd
00000100: 776c 4f3d bd84 abbd f7d4 603e 10cb ccbe
00000110: d989 c7bd 603d debd d0de 1e3e 5c5e edbd
00000120: 5c13 bbbd a9b5 c33c 955f a4bd bbcd d23d
00000130: 1fa6 663e b332 d23c b840 0ebe 7c04 01be
00000140: 409b 8a3d 83a4 75bc 2460 dabd db7d 903c
00000150: ed14 57be e5e9 91bc c475 b03b a278 44bd
00000160: 8bd3 39bd 32a0 f03c bbd4 56be d3c9 dfbd
00000170: 70eb 073e 3a31 8bbe 73b8 e1bb 2d43 bebd
00000180: 64b9 593a 29b6 62bd e7fa b33d 1c39 f6bd
00000190: 5359 59bd 0c6f a9bb 2309 5bbd 8f64 7fbe
000001a0: f297 1bbe d063 acbd 5e2c f2bd 2b70 30bd
000001b0: d7cf 06be 03c9 433d 401a 97bb ef2f b43d
000001c0: 9dc6 703e 2acb ef3c 8192 ebbd 8104 e2bd
000001d0: 5f6e a3bc dcab 923d 579e 353e bde0 ea3c
000001e0: 02fc 173e ccdd 1d3f 6ec8 0e3e d770 493e
000001f0: b076 4a3e 1a61 c33d c239 8dbd d8c1 8dbd
00000200: 684b afbd a54f 503c 83b0 85bd 2b5f dcbc
00000210: 3585 6abc 971b 41bd c287 563b a0cd 02be
00000220: bfd4 2fbe 6a8e 503e e06a 35be f756 983d
00000230: e08a c4bd 6b7d d5be 508b 20be 4a71 2fbc
00000240: fdbd efbd 651f e83b 440a 313e 8a03 fcbb
00000250: 01b3 193f 7d4e 043e 6dc7 abbc 6f43 db3d
00000260: e013 d0bd c3ae 113d b857 1b3e 39c5 c83c
00000270: 1962 adbd 1b8b c33c f819 18be 67ea b53c
00000280: 6be6 163e 939d c7bc 7d76 20bd 20e1 babc
00000290: efde 7abc 9faa 763d af2f bb3c ea24 9f3d
000002a0: 64f8 16bd 180d 25bd eedd 46bc c57c af3d
000002b0: 5584 61bc 5520 66bd 2b82 f0bd 2880 453f
000002c0: 4afb 8b3c 0dd4 febd a2a6 3b3d 859a febb
000002d0: 4352 df3d 569d 7cbd c5f3 d53d 6f4b 28bd
000002e0: ff55 6d3e 15a9 313d 8295 603c 1651 9e3d
000002f0: b1ac 443d 902d 873e 239d 88bb 4f28 3ebd
00000300: 5b6f 1d3e d3a8 8cbc 4f03 24be fc56 1e3e
00000310: fb44 e53b 22f4 b5bc 84fd e23d ad4b f9bd
00000320: 8c1b cb3c e8f2 983d 04b3 9e3e 9d3b 02be
00000330: 88c2 793e 068f 5dbe c67a d1bd 48d3 78bd
00000340: a999 a7bd b0d2 8abd 6d5c 5b3e 2742 1fbe
00000350: 0d50 dfbd b02e 153e 440b 6c3d a73c ddbd
00000360: 8810 ef3d 07e1 a63d e1c7 fa3d bf3d 3b3e
00000370: 08f2 99bd 46d2 e13c 2b73 433e 3373 123c
00000380: 7fb8 883b 3447 013e 85f1 37bd abd9 75be
00000390: fec4 033e 4220 193e c0fa babd dd49 303e
000003a0: c7aa 06be 9a12 69bd af99 d93c 0168 0cbc
000003b0: a5ce 4c3b 9015 7c3d 44c8 123d 6784 103e
000003c0: 6af1 56bd fd23 a2bd d810 443d d19d 3b3d
000003d0: 0a9d e03d c761 993e e350 10be c39f 52be
000003e0: a947 ad3d ebad 803c ed03 0abe 07a2 4f3d
000003f0: 9eb5 e6bd fac1 09be 9fbe a3bd 26c8 d6be

model.3.conv.bias f4 [5]
0.01436927 -0.03590892 -0.009435512 -0.07645891 0.053205952
00000000: 166d 6b3c 3b15 13bd 6897 1abc 7d96 9cbd
00000010: 7cee 593d

model.3.bnorm.weight f4 [5]
1.2411046 0.8384207 0.9601865 0.87007755 0.90252703
00000000: 84dc 9e3f bda2 563f c8ce 753f 67bd 5e3f
00000010: 030c 673f

model.3.bnorm.bias f4 [5]
-0.17035173 0.237467 -0.30234724 -0.2878453 0.74704725
00000000: af70 2ebe 8d2a 733e 42cd 9abe 7660 93be
00000010: 7d3e 3f3f

model.3.bnorm.running_mean f4 [5]
-1.1201843 0.9892107 -1.7870564 0.8035109 0.8778462
00000000: 3362 8fbf ea3c 7d3f 44be e4bf e4b2 4d3f
00000010: 87ba 603f

model.3.bnorm.running_var f4 [5]
2.3416135 2.4022055 3.1519864 2.007739 2.3592052
00000000: ffdc 1540 bcbd 1940 25ba 4940 cc7e 0040
00000010: 38fd 1640

model.4.conv.weight f4 [5, 5, 3, 3, 3]
-0.015470777 -0.11086099 -0.10674553 -0.07055961 -0.12270184 -0.028324721 -0.025694445 -0.089997075
-0.08142776 -0.16336632 -0.26851088 -0.013551059 -0.29699412 -0.36222523 -0.07892556 -0.24281025
-0.12662396 -0.0061478936 0.08122313 -0.13416234 0.29386026 -0.18674378 -0.3744448 -0.007632474
0.020310888 -0.13488156 0.1317245 0.060076356 0.098653816 -0.14127703 -0.12058626 0.09781698
0.043461464 0.17087686 0.0220965 0.0010729867 0.17501299 0.29462972 0.107814156 0.19291122
0.5005785 0.23131339 -0.024967112 0.21206278 0.10571178 0.1636386 0.10673903 0.14810102
-0.03212578 0.021380914 -0.18448709 0.12027233 0.093325205 -0.10330449 -0.0664341 0.120476335
-0.23906086 0.19153011 0.20165971 -0.062831596 0.35506803 0.061785154 -0.010312844 0.24929473
0.022837726 0.10360709 0.33711413 0.019753328 0.09939282 0.22300152 0.0900535 0.13747041
-0.1852975 -0.03983952 -0.086225815 -0.34388947 -0.06598542 0.17434624 0.06300322 -0.20449835
0.3140051 0.19303434 -0.17484233 -0.037284303 0.20256467 -0.22247268 -0.3661328 0.037575044
0.0015665175 -0.09664488 0.15071267 0.25874373 0.2478573 0.048115443 0.057953697 0.32258603
0.122286834 0.21910045 0.3808814 -0.18552162 -0.28899673 -0.13550606 0.0077606463 0.032788455
-0.12607957 -0.10019296 -0.112788044 0.17053898 -0.033241596 -0.03704384 -0.17080137 0.07027386
0.037840586 0.05839853 -0.07706572 -0.15689148 -0.08864358 -0.30304113 -0.22180359 -0.14478512
-0.18577887 -0.2689375 -0.1809852 -0.29754812 -0.20430197 -0.08834844 -0.13220163 -0.08885445
0.047749963 -0.033761453 0.08335214 -0.14364217 -0.0649847 -0.013638235 -0.11714317 0.023735499
0.14457482 -0.08502824 -0.05135338 0.082146145 0.1643629 -0.02083894 0.054580417 0.047402978
0.1489776 0.21676385 0.06153725 0.07188548 -0.76767164 -0.06898058 0.033514086 0.17477067
0.14691815 0.08293912 0.04629839 0.06805955 -0.052795734 0.20176995 -0.047898423 0.0096357055
0.06953789 -0.014583615 -0.09018533 -0.036199644 0.091876216 0.027390173 -0.14680737 0.15713368
0.014007001 -0.02822367 0.13386773 0.08997368 0.13525623 0.123768546 0.060184225 0.84829175
-0.13415594 0.110752635 -0.069261245 0.04277305 -0.04122358 0.0057909493 0.0039044365 0.11934631
0.010700285 0.054886848 -0.02933669 0.08903589 -0.005881321 -0.0023774162 -0.04027473 0.050881468
0.31132078 -0.033100765 0.06376641 0.12777032 -0.09727534 -0.008767198 -0.06975736 0.17757766
0.069485955 0.015140317 -0.09166153 -0.08113347 0.08661211 -0.023146752 -0.010041301 -0.055590402
0.040007044 -0.07398745 -0.039080355 -0.13004941 0.027964946 -0.3655027 -0.032456912 -0.10356897
0.19362785 0.035892848 0.027917957 0.21606939 -0.29758856 -0.006337724 0.19037664 -0.01890548
0.08507281 -0.014207297 -0.17084296 0.08388367 0.10456903 0.06788884 0.09288651 0.10581411
0.06421581 0.014798939 -0.045827948 -0.054536484 -0.1540311 -0.12160932 0.05880801 -0.31229466
-0.1749467 -0.004452586 -0.03684465 0.06308369 0.0336784 -0.05774439 -0.05006833 -0.0018282596
-0.022041436 -0.06335332 -0.030766563 0.006436689 -0.037157033 -0.033733338 -0.0709911 0.0017545319
00000000: 2479 7dbc 160b e3bd 679d dabd 8f81 90bd
00000010: 1a4b fbbd 3f09 e8bc 287d d2bc 6350 b8bd
00000020: 99c3 a6bd 8049 27be 427a 89be 4305 5ebc
00000030: 9d0f 98be 9675 b9be b9a3 a1bd 40a3 78be
00000040: b6a9 01be 4574 c9bb 5058 a63d da61 09be
00000050: da74 963e c339 3fbe 3bb7 bfbe d519 fabb
00000060: 0563 a63c 641e 0abe cae2 063e a012 763d
00000070: 030b ca3d edaa 10be eef5 f6bd 4554 c83d
00000080: a604 323d 58fa 2e3e b803 b53c 76a3 8c3a
00000090: 9b36 333e b5d9 963e abcd dc3d 858a 453e
000000a0: ea25 003f 6bdd 6c3e d487 ccbc fc26 593e
000000b0: 6b7f d83d e190 273e fe99 da3d cba7 173e
000000c0: 5296 03bd 0727 af3c 2fea 3cbe 5751 f63d
000000d0: 4921 bf3d 4e91 d3bd 9a0e 88bd 4cbc f63d
000000e0: 5fcc 74be 7820 443e e27f 4e3e daad 80bd
000000f0: 7acb b53e 6e12 7d3d 34f7 28bc 1e47 7f3e
00000100: 2f16 bb3c f42f d43d 399a ac3e bbd1 a13c
00000110: 768e cb3d 835a 643e f86d b83d 0bc5 0c3e
00000120: a1be 3dbe c42e 23bd 2997 b0bd 4812 b0be
00000130: 5d23 87bd d287 323e d507 813d 0468 51be
00000140: 47c5 a03e cbaa 453e de09 33be 6db7 18bd
00000150: 1d6d 4f3e e1cf 63be c275 bbbe 4ae8 193d
00000160: 9b53 cd3a c0ed c5bd 6c54 1a3e 0f7a 843e
00000170: 4ece 7d3e b314 453d db60 6d3d ff29 a53e
00000180: 8571 fa3d de5b 603e e302 c33e 61f9 3dbe
00000190: 61f7 93be 1ac2 0abe 054d fe3b 304d 063d
000001a0: 011b 01be f731 cdbd 6bfd e6bd c5a1 2e3e
000001b0: 5728 08bd 48bb 17bd 8ee6 2ebe beeb 8f3d
000001c0: bbfe 1a3d 4c33 6f3d a2d4 9dbd 29a8 20be
000001d0: c48a b5bd 3528 9bbe 7b20 63be 8d42 14be
000001e0: d13c 3ebe 2db2 89be 2f54 39be 3a58 98be
000001f0: 8934 51be 07f0 b4bd dd5f 07be 52f9 b5bd
00000200: 7795 433d 7349 0abd 87b4 aa3d ef16 13be
00000210: b316 85bd e772 5fbc c2e8 efbd f370 c23c
00000220: 6c0b 143e 4923 aebd ec57 52bd 3d3c a83d
00000230: c04e 283e 6db6 aabc b78f 5f3d a029 423d
00000240: 958d 183e 58f7 5d3e 7c0e 7c3d b238 933d
00000250: 2186 44bf b145 8dbd 1146 093d 15f7 323e
00000260: b671 163e fcdb a93d 61a3 3d3d ce62 8b3d
00000270: 5740 58bd c89c 4e3e 2331 44bd 14df 1d3c
00000280: e269 8e3d 1df0 6ebc 16b3 b8bd 1446 14bd
00000290: 9929 bc3d 5b61 e03c ac54 16be a7e7 203e
000002a0: 9f7d 653c 5335 e7bc 9f14 093e 1f44 b83d
000002b0: 9c80 0a3e 5d7a fd3d bc83 763d a629 593f
000002c0: 2d60 09be 47d2 e23d d7d8 8dbd cb32 2f3d
000002d0: 0eda 28bd 01c2 bd3b 93e1 7f3b d76b f43d
000002e0: 4050 2f3c 08d1 603d 8053 f0bc 7358 b63d
000002f0: 19b8 c0bb 6dce 1bbb 1ef7 24bd 1669 503d
00000300: 7065 9f3e ab94 07bd f797 823d 39d6 023e
00000310: 4b38 c7bd 4ba4 0fbc f2dc 8ebd ebd6 353e
00000320: a74e 8e3d 180f 783c 0ab9 bbbd 4e29 a6bd
00000330: b161 b13d 429e bdbc 4584 24bc c3b2 63bd
00000340: 6dde 233d bb86 97bd b912 20bd ac2b 05be
00000350: be16 e53c 2b23 bbbe 8af1 04bd f81b d4bd
00000360: 6146 463e 6104 133d 33b4 e43c 4b41 5d3e
00000370: 875d 98be afac cfbb 18f2 423e aadf 9abc
00000380: a73a ae3d b9c5 68bc 75f1 2ebe 34cb ab3d
00000390: 4a28 d63d 4e09 8b3d 483b be3d 11b5 d83d
000003a0: 9483 833d 4077 723c 16b6 3bbd a661 5fbd
000003b0: 54ba 1dbe 4f0e f9bd abe0 703d 16e5 9fbe
000003c0: 3a25 33be 00e7 91bb 6aea 16bd 0632 813d
000003d0: 5df2 093d 6285 6cbd 7314 4dbd 36a2 efba
000003e0: 3e90 b4bc 63bf 81bd 290a fcbc dcea d23b
000003f0: f931 18bd f82b 0abd c863 91bd 52f8 e53a

model.4.conv.bias f4 [5]
-0.011172704 0.015299843 -0.012659378 -0.007943782 -0.07676143
00000000: b80d 37bc 31ac 7a3c 4869 4fbc a326 02bc
00000010: 1935 9dbd

model.4.bnorm.weight f4 [5]
0.84659755 0.9252139 1.126381 0.8864026 0.94276965
00000000: 9eba 583f d1da 6c3f 412d 903f 48eb 623f
00000010: 5a59 713f

model.4.bnorm.bias f4 [5]
-0.634095 0.2886568 0.04756348 -0.42314592 0.47014612
00000000: 0d54 22bf d3ca 933e ecd1 423d 95a6 d8be
00000010: feb6 f03e

model.4.bnorm.running_mean f4 [5]
-0.98207 1.473166 -0.039912835 -1.3054465 -1.6052936
00000000: f168 7bbf b490 bc3f a47b 23bd df18 a7bf
00000010: 437a cdbf

model.4.bnorm.running_var f4 [5]
1.7598299 1.8021253 1.5167335 1.4732424 2.2610538
00000000: 1b42 e13f 0bac e63f 5324 c23f 3593 bc3f
00000010: 1bb5 1040

model.5.conv.weight f4 [5, 5, 3, 3, 3]
0.2840186 0.039224032 0.22850482 0.25003105 0.18446657 0.07427267 -0.012725503 -0.017673604
-0.07515471 0.046350263 0.2906782 -0.012212099 0.18345943 0.3266819 0.07040601 0.14933752
0.23226622 0.05006978 0.09032218 0.079117194 0.1420364 0.31142014 0.091772296 -0.122042276
0.20924698 -0.017843865 0.3108422 0.041552342 -0.1648814 -0.057396587 -0.079192854 0.07573316
-0.08104079 0.03537601 -0.17082262 -0.16413033 0.039581027 0.10062365 -0.010902376 0.046915922
-0.3822201 -0.08061901 -0.029171854 0.025760945 0.00037830623 0.0135390945 -0.13507102 0.11118046
0.06442406 -0.005797405 0.006497935 -0.1918549 0.009311841 0.17893149 0.12870693 -0.05146013
0.03389471 0.06315101 0.06751724 0.13253085 0.11996882 0.057275947 -0.0038054187 0.046766046
0.23827899 0.3083083 0.34938294 1.0917286 -0.056852404 0.020840991 0.13265303 0.20179631
0.24462269 0.020943636 0.12633175 0.039699458 0.20608492 0.15237471 0.10901248 0.077568285
0.062327832 0.00668644 0.31967884 0.21491599 0.05961074 -0.019686218 0.14105222 0.07766549
0.12078143 0.03855744 0.060535572 0.063653775 0.01217497 -0.12085567 0.12507892 0.2915494
-0.2779909 0.15503627 -0.20793927 -0.030212555 0.05725281 -0.019201707 0.17483976 -0.05519666
-0.14115784 -0.09289783 0.009373507 0.19301656 -0.031541318 0.038071636 0.028769754 -0.13183022
-0.038958143 -0.08631897 -0.0056974585 0.05460907 -0.06616871 0.05171532 -0.13980235 -0.15368977
0.15522395 0.39500493 -0.023915283 -0.03598806 -0.100407474 -0.15364198 -0.26639873 -0.11870917
-0.016531123 -0.041979887 -0.1360673 -0.033832535 -0.17588119 -0.086598635 0.12975283 -0.19598018
-0.13934526 0.01647969 -0.045619942 -0.20170695 0.076430924 0.26019543 -0.17779134 0.38435617
0.047222707 0.0397933 -0.09502926 0.2812292 -0.041183386 0.00033279622 0.37069672 0.057010688
0.045831807 -0.04054146 0.015932007 -0.14531088 -0.23211253 -0.1638566 -0.121841565 -0.18047589
0.17712998 -0.15271023 0.004216913 -0.1262147 -0.035261605 0.036970757 -0.2893753 -0.048539363
-0.071636476 0.018372463 -0.011661058 0.024929782 -0.039333835 0.060417965 -0.19533144 -0.29972056
0.21768534 -0.034413397 -0.048534825 0.047299974 0.05047386 0.07504882 0.06445739 -0.066639595
-0.027719943 -0.07515062 -0.015144847 0.09629928 -0.0539924 0.079582766 0.08382341 0.123135015
0.045312144 0.076529585 0.14435121 0.021254629 0.124039784 0.116851166 -0.0018588196 -0.0007661318
0.102182366 0.16968626 0.85125804 0.15274018 0.07146253 0.034828965 0.11415224 0.11514209
0.21893263 0.0633301 0.09155553 0.13314721 0.11625885 0.10090185 0.1378252 0.07835273
0.18454817 0.21874057 0.16928723 0.10500902 -0.0152813615 0.08797284 0.009889212 -0.03546994
0.04584306 0.17222196 -0.073555656 -0.030095452 0.06488639 0.031113725 -0.17750205 0.096498705
-0.13329776 0.09747951 -0.03199813 -0.25933573 -0.4020124 -0.06835658 -0.08529408 -0.19343992
0.01475976 -0.22278433 -0.30555874 -0.06829462 -0.03957887 -0.15248197 -0.09724336 0.0077236225
-0.18802477 0.0010146605 -0.018815283 -0.102455966 -0.19076556 0.10373303 -0.12349995 -0.0050819363
00000000: e36a 913e 61a9 203d 2bfd 693e 1204 803e
00000010: cee4 3c3e 451c 983d a17e 50bc 3cc8 90bc
00000020: b6ea 99bd c6d9 3d3d c6d3 943e 4115 48bc
00000030: cadc 3b3e da42 a73e 0731 903d efeb 183e
00000040: 32d7 6d3e f815 4d3d d6fa b83d 3208 a23d
00000050: fd71 113e 7672 9f3e 1df3 bb3d 4df1 f9bd
00000060: d744 563e 4c2d 92bc b526 9f3e ca32 2a3d
00000070: abd6 28be af18 6bbd dd2f a2bd fd19 9b3d
00000080: b7f8 a5bd 6fe6 103d 20ec 2ebe c811 28be
00000090: b71f 223d c613 ce3d e19f 32bc e92a 403d
000000a0: 5ab2 c3be 941b a5bd d0f9 eebc 9e08 d33c
000000b0: 6757 c639 14d3 5d3c 0f50 0abe 95b2 e33d
000000c0: c3f0 833d 28f8 bdbb a1ec d43b 9c75 44be
000000d0: b190 183c d139 373e c0cb 033e dbc7 52bd
000000e0: 2ed5 0a3d 5155 813d 7b46 8a3d 2bb6 073e
000000f0: 36b2 f53d 2f9a 6a3d 5564 79bb c18d 3f3d
00000100: 68ff 733e 96da 9d3e 52e2 b23e c3bd 8b3f
00000110: 11de 68bd baba aa3c 32d6 073e b1a3 4e3e
00000120: 5f7e 7a3e fd91 ab3c 1c5d 013e e69b 223d
00000130: ed07 533e 1e08 1c3e ef41 df3d 1fdc 9e3d
00000140: 784b 7f3d ed19 db3b f2ac a33e f012 5c3e
00000150: 642a 743d fe44 a1bc fe6f 103e 160f 9f3d
00000160: 415c f73d 68ee 1d3d 26f4 773d e95c 823d
00000170: 8679 473c 2d83 f7bd b014 003e f745 953e
00000180: d354 8ebe d4c1 1e3e 08ee 54be 5280 f7bc
00000190: ec81 6a3d e64c 9dbc 3209 333e e515 62bd
000001a0: ae8b 10be 3841 bebd 5793 193c 22a6 453e
000001b0: 7831 01bd 01f1 1b3d 8cae eb3c 80fe 06be
000001c0: 9392 1fbd 00c8 b0bd bfb1 babb c3ad 5f3d
000001d0: 7683 87bd 72d3 533d 5928 0fbe da60 1dbe
000001e0: 07f3 1e3e 163e ca3e fce9 c3bc 3768 13bd
000001f0: 6fa2 cdbd 5354 1dbe 6a65 88be cb1d f3bd
00000200: 476c 87bc 1af3 2bbd 3a55 0bbe fc93 0abd
00000210: 331a 34be a05a b1bd eddd 043e 07af 48be
00000220: 86b0 0ebe 6a00 873c fadb 3abd 448c 4ebe
00000230: d187 9c3d 5638 853e ef0e 36be 55ca c43e
00000240: 996c 413d 4dfe 223d b39e c2bd 46fd 8f3e
00000250: e9af 28bd 277b ae39 f6cb bd3e 0a84 693d
00000260: 22ba 3b3d cd0e 26bd d783 823c 60cc 14be
00000270: e8ae 6dbe 06ca 27be 1288 f9bd acce 38be
00000280: 9061 353e 1260 1cbe 082e 8a3b 6d3e 01be
00000290: 796e 10bd a66e 173d 0029 94be 36d1 46bd
000002a0: 25b6 92bd d981 963c 060e 3fbc 8b39 cc3c
000002b0: 841c 21bd d478 773d f704 48be f974 99be
000002c0: e8e8 5e3e 10f5 0cbd 74cc 46bd 9ebd 413d
000002d0: aebd 4e3d 32b3 993d 3c02 843d 577a 88bd
000002e0: ef14 e3bc 91e8 99bd 1822 78bc 8f38 c53d
000002f0: 2327 5dbd 4afc a23d 9cab ab3d 362e fc3d
00000300: 3a99 393d 8bbb 9c3d ced0 133e 301e ae3c
00000310: 9208 fe3d aa4f ef3d a3a3 f3ba 3cd6 48ba
00000320: fd44 d13d 3cc2 2d3e 0cec 593f ec67 1c3e
00000330: f25a 923d d1a8 0e3d a6c8 e93d 9ecf eb3d
00000340: e02f 603e 36b3 813d 7781 bb3d be57 083e
00000350: 1f19 ee3d a1a5 ce3d 0d22 0d3e 6577 a03d
00000360: 32fa 3c3e 87fd 5f3e a259 2d3e f80e d73d
00000370: ad5e 7abc 1b2b b43d 5d06 223c ee48 11bd
00000380: efc5 3b3d f45a 303e 59a4 96bd bd8a f6bc
00000390: 28e3 843d 36e2 fe3c 19c3 35be 1da1 c53d
000003a0: 357f 08be 56a3 c73d 7910 03bd a7c7 84be
000003b0: 92d4 cdbe 89fe 8bbd aaae aebd 1d15 46be
000003c0: ecd2 713c 9321 64be 3272 9cbe 0dde 8bbd
000003d0: 741d 22bd 3c24 1cbe 8727 c7bd 7116 fd3b
000003e0: 9189 40be 5bfe 843a 8222 9abc 6fd4 d1bd
000003f0: 0c58 43be fc71 d43d 8bed fcbd 5f86 a6bb

model.5.conv.bias f4 [5]
-0.0053978884 -0.046396688 -0.03416339 -0.013892419 -0.00057762413
00000000: c5e0 b0bb 740a 3ebd e9ee 0bbd 079d 63bc
00000010: b36b 17ba

model.5.bnorm.weight f4 [5]
0.8811059 0.93985647 1.010301 0.89954895 0.8852499
00000000: 2890 613f 6f9a 703f 8b51 813f d748 663f
00000010: bd9f 623f

model.5.bnorm.bias f4 [5]
-0.26941818 -0.10860585 -0.8549894 -0.33417848 0.42475984
00000000: 2ef1 89be be6c debd 96e0 5abf 7119 abbe
00000010: 1f7a d93e

model.5.bnorm.running_mean f4 [5]
1.0528331 -0.3498849 0.1879658 -0.44541684 -0.028727751
00000000: 3cc3 863f 1d24 b3be 1b7a 403e ad0d e4be
00000010: 7656 ebbc

model.5.bnorm.running_var f4 [5]
4.4502606 3.1946058 3.1246498 3.9700613 2.6014752
00000000: 8968 8e40 6c74 4c40 43fa 4740 7c15 7e40
00000010: 927e 2640

model.6.conv.weight f4 [5, 5, 3, 3, 3]
-0.004728639 -0.07723754 -0.06550382 -0.16025487 0.12085793 -0.38084382 0.13406187 -0.18198566
-0.18640669 0.07712172 -0.026408086 -0.15604688 -0.022070741 -0.07236087 -0.15899087 -0.19987537
-0.26784363 -0.1680648 -0.024571015 -0.06647592 -0.10048809 -0.26449454 -0.05463874 0.056828544
-0.109113485 -0.15008272 -0.2713509 -0.23977657 -0.08552048 0.004463679 -0.2493259 -0.36104664
0.18884751 -0.08297508 -0.38155434 0.07501012 -0.20340034 -0.04128711 -0.0046735494 0.017930368
-0.22855595 0.16009434 -0.21521989 -0.09536949 0.14836447 -0.047352403 -0.10318714 -0.014594144
0.08401235 -0.06568866 -0.12664351 0.08855612 -0.14501092 -0.11797226 -0.20383514 -0.09876116
0.32929164 -0.059633374 -0.03438574 0.5567011 -0.1569017 -0.03642139 0.3954041 0.11207757
-0.03396974 0.47992697 -0.082186975 0.15137024 0.35970286 0.121962845 0.26646626 0.33818227
0.20208988 0.1379556 -0.078630954 0.023209436 -0.11537994 -0.18850146 -0.107988656 -0.0085347835
0.12185128 -0.053643133 -0.07201602 0.03186055 0.068267025 -0.023298258 0.045365267 0.11681853
-0.057601858 0.11356252 0.08419572 0.16254039 0.07277222 -0.10215684 -0.046220813 0.15291117
0.11896025 -0.019503007 -0.23613046 0.002655752 -0.13982676 -0.07185325 -0.03940757 0.06800365
-0.021745253 0.004262771 0.0055066645 -0.23501661 -0.074836776 -0.10938573 0.1137185 -0.14734305
-0.24996893 0.0045581385 -0.06904917 -0.24571633 0.13036239 0.022569166 -0.23557857 0.08429689
-0.008554915 -0.10769109 0.15831175 -0.09802093 -0.13805123 0.09741519 0.1323278 0.07214297
-0.15957227 -0.08376959 0.12209008 -0.08136009 0.050729662 0.14557296 -0.08763458 0.034157354
0.07207337 -0.094000466 0.1955643 0.007231078 0.09870953 -0.023501286 -0.0045927786 0.0039986
0.047506467 -0.11971875 -0.08004786 -0.03934408 0.18595211 -0.02606661 -0.015824873 -0.093762666
0.005694846 -0.043113858 0.09009355 0.084235094 -0.124185726 -0.09754905 0.03309905 0.19389884
-0.068048075 0.101287365 -0.10416587 -0.019007213 -0.03637744 -0.06217052 -0.0850875 -0.03226704
-0.087609366 -0.03574954 -0.10191913 0.093259856 -0.09293252 0.0065404302 -0.049614303 0.3418796
-0.09425275 0.023613548 0.055656906 0.048741736 0.035227157 0.04160835 -0.04565778 0.006199325
-0.014565353 -0.0052986164 0.02603864 -0.10260867 0.027061353 0.006898756 0.026387041 0.039828308
0.021046475 -0.12679297 0.09887803 -0.1759588 -0.03600652 -0.19398955 0.12387273 -0.0358719
0.09925197 -0.0051940624 -0.14771233 0.026077252 0.023951368 -0.09328957 -0.03295681 0.03981908
0.10532521 0.07689142 0.021385295 -0.10165949 -0.05641089 0.11767487 -0.032689065 0.04402934
0.08272994 -0.60377717 -0.26432148 0.019334111 -0.70766765 -0.34337452 0.05359757 -0.6870366
-0.1105927 0.16530542 -0.88062793 -0.25027835 -0.16569062 -1.0011469 -0.49795064 0.06876917
-1.1626143 -0.17094567 -0.055379767 -0.4997484 -0.007876106 0.03314156 -0.45225477 -0.23730941
0.023449697 -0.63609964 0.078548506 0.009873018 -0.10677306 0.018295493 0.034151092 0.033446625
-0.048855513 -0.010565146 0.030048827 -0.012698118 -0.10252792 0.22560368 -0.12425316 -0.109173864
00000000: b3f2 9abb b72e 9ebd de26 86bd da19 24be
00000010: 5d84 f73d f6fd c2be 8447 093e 735a 3abe
00000020: 65e1 3ebe fef1 9d3d c555 d8bc c1ca 1fbe
00000030: b3cd b4bc f031 94bd 81ce 22be 21ac 4cbe
00000040: cd22 89be 2e19 2cbe 2749 c9bc 8724 88bd
00000050: b3cc cdbd d46b 87be dfcc 5fbd 0cc5 683d
00000060: e476 dfbd 49af 19be 81ee 8abe fd87 75be
00000070: 5d25 afbd 0e44 923b 4a4f 7fbe 1bdb b8be
00000080: 3e61 413e d7ee a9bd 175b c3be e89e 993d
00000090: 2e48 50be ac1c 29bd 9324 99bb b5e2 923c
000000a0: 920a 6abe c5ef 233e 9a62 5cbe 1451 c3bd
000000b0: dbec 173e 98f4 41bd c753 d3bd 471c 6fbc
000000c0: ab0e ac3d c787 86bd d6ae 01be e95c b53d
000000d0: be7d 14be 719b f1bd 29ba 50be 4b43 cabd
000000e0: ea98 a83e 2042 74bd 10d8 0cbd f783 0e3f
000000f0: d7aa 20be 982e 15bd 6872 ca3e ed88 e53d
00000100: db23 0bbd fdb8 f53e a551 a8bd cd00 1b3e
00000110: f92a b83e a8c7 f93d 446e 883e 3a26 ad3e
00000120: a6f0 4e3e 3c44 0d3e 4409 a1bd b721 be3c
00000130: 514c ecbd 8706 41be 2829 ddbd 7ad5 0bbc
00000140: 2a8d f93d e7b8 5bbd 237d 93bd 3580 023d
00000150: 95cf 8b3d fddb bebc eed0 393d 8e3e ef3d
00000160: edef 6bbd 7793 e83d ce6e ac3d fd70 263e
00000170: 9a09 953d 9b37 d1bd 0952 3dbd bf94 1c3e
00000180: 6ea1 f33d c5c4 9fbc 2fcc 71be 200c 2e3b
00000190: bf2e 0fbe cc27 93bd d569 21bd 7f45 8b3d
000001a0: 1a23 b2bc b7ae 8b3b 4071 b43b 32a8 70be
000001b0: 0644 99bd a005 e0bd 3fe5 e83d 19e1 16be
000001c0: dbf7 7fbe 705c 953b a769 8dbd 109d 7bbe
000001d0: b87d 053e f9e2 b83c 823b 71be d9a3 ac3d
000001e0: ea29 0cbc 258d dcbd 7a1c 223e 33bf c8bd
000001f0: 4d5d 0dbe 9d81 c73d f080 073e b2bf 933d
00000200: ea66 23be 648f abbd 5d0a fa3d 1ea0 a6bd
00000210: e8c9 4f3d 1411 153e c279 b3bd 95e8 0b3d
00000220: 349b 933d 5183 c0bd 0242 483e aef2 ec3b
00000230: 3928 ca3d c585 c0bc 057f 96bb b006 833b
00000240: 2496 423d 1b2f f5bd 22f0 a3bd 4227 21bd
00000250: 3b6a 3e3e a589 d5bc 2aa3 81bc a406 c0bd
00000260: d59b ba3b 2898 30bd f882 b83d 7383 ac3d
00000270: 1655 febd ccc7 c7bd df92 073d 6b8d 463e
00000280: ca5c 8bbd c06f cf3d ea54 d5bd 04b5 9bbc
00000290: 8300 15bd 84a6 7ebd 5b42 aebd 722a 04bd
000002a0: 8a6c b3bd 1c6e 12bd faba d0bd 06ff be3d
000002b0: 6853 bebd 1b51 d63b 5e38 4bbd d80a af3e
000002c0: 9607 c1bd 3371 c13c 7ff8 633d 6aa5 473d
000002d0: 5a4a 103d 846d 2a3d a703 3bbd b523 cb3b
000002e0: 85a3 6ebc 04a0 adbb fc4e d53c 7f24 d2bd
000002f0: c5af dd3c f60e e23b a329 d83c 0223 233d
00000300: a869 ac3c 04d6 01be 9180 ca3d 8b2e 34be
00000310: 937b 13bd 32a5 46be fcb0 fd3d 6aee 12bd
00000320: 9e44 cb3d f432 aabb e741 17be f69f d53c
00000330: a935 c43c 9a0e bfbd b8fd 06bd 5519 233d
00000340: beb4 d73d 4079 9d3d 3730 af3c da32 d0bd
00000350: 1b0f 67bd 86ff f03d f8e4 05bd 1c58 343d
00000360: 516e a93d 2491 1abf 2555 87be 9262 9e3c
00000370: b529 35bf c9ce afbe 2089 5b3d a1e1 2fbf
00000380: 6d7e e2bd d345 293e d570 61bf 7c24 80be
00000390: cdaa 29be 9525 80bf 63f3 febe dad6 8c3d
000003a0: 8cd0 94bf 620c 2fbe e5d5 62bd 06df ffbe
000003b0: c80a 01bc 72bf 073d f08d e7be 3d01 73be
000003c0: 9419 c03c 6dd7 22bf 0ade a03d 70c2 213c
000003d0: d6ab dabd 6ee0 953c 04e2 0b3d 54ff 083d
000003e0: b81c 48bd 6f19 2dbc f528 f63c c40b 50bc
000003f0: 28fa d1bd a704 673e 7178 febd 8c96 dfbd

model.6.conv.bias f4 [5]
-0.016790243 0.015947087 0.02826289 0.01308682 -0.0067216284
00000000: b18b 89bc 77a3 823c 9487 e73c 1a6a 563c
00000010: 1b41 dcbb

model.6.bnorm.weight f4 [5]
1.0954577 0.908304 1.0317621 0.6007342 0.75368905
00000000: f537 8c3f 9c86 683f c810 843f b7c9 193f
00000010: c4f1 403f

model.6.bnorm.bias f4 [5]
-1.1687942 0.036059204 -0.11780348 0.18423234 -0.12650701
00000000: 0c9b 95bf d1b2 133d f342 f1bd 67a7 3c3e
00000010: 0e8b 01be

model.6.bnorm.running_mean f4 [5]
-1.2342893 -2.785197 -1.5171785 -1.4383214 0.23627564
00000000: 31fd 9dbf ab40 32c0 e832 c2bf ea1a b8bf
00000010: 3ef2 713e

model.6.bnorm.running_var f4 [5]
2.9610531 13.624381 7.950887 4.661253 2.3452396
00000000: e581 3d40 77fd 5941 ab6d fe40 fc28 9540
00000010: 6818 1640
